TicTacToe/model/model.pth (torch, 407151 bytes, 10 tensors)

conv1.weight f4 [32, 1, 3, 3]
00000000: 615b a2be 0836 5ebe c3a3 443e 653c 893e
00000010: cd0d a3be 258d 5a3d 8c26 5c3e 797e e13e
00000020: fdcb b9be 9f45 783e 91a3 a9bd fc7c b23e
00000030: facd 4bbe f9fc acbe 2c3c 91be 76b3 b53e
00000040: 9609 86be e25f 4f3c 0f70 68be 0837 89be
00000050: d571 213e b50b 66be 2da4 bd3e 29d1 a13d
00000060: f67b 0bbe 0b30 913d 953a 8bbe 6278 a73b
00000070: 904c e5bd 9637 183d 4180 05be c3a1 6ebe
00000080: 8d90 a5be f811 9abd cc0a 023f d26e 873d
00000090: 09dd ae3e 0ce4 b2be 935e 7a3d b8be 72be
000000a0: 6b1d 1fbe 8706 2f3d c261 82be 8483 9d3e
000000b0: 1920 babe 15d0 cc3e 629e 1bbe bc87 83be
000000c0: f615 62bd 5331 5abe 395f f9bd fcd2 03bd
000000d0: 6e50 f7bc d34c eebe ab85 cbbd 0406 433c
000000e0: 8b52 8c3b e521 d9bc f741 90be aa17 fabd
000000f0: e25d db3c f5ce 0a3c 978d 54bd 8710 7cbe
00000100: c23a 00be 34b1 61be 4613 d6bd 8296 d13e
00000110: 7bd2 283e dfe9 b63d 387a c33e f870 87bd
00000120: c9ba ef3d 6bc0 c9bd e52d 60be 9854 f6bd
00000130: 117b 55be 223e b13e dd6c a03d 2dc6 4a3d
00000140: 6c42 20be 5cfa 683e a679 a73c 4f41 f7bd
00000150: c708 413e 452e 6f3e aaf2 a4be 170f 93bb
00000160: 1176 db3d 6b0f 03be db39 4f3e f4c5 9bbd
00000170: dee2 923e ea90 74be 2613 c7be b547 1abe
00000180: fd25 b53e fe59 fbbd badd 61be f809 9ebe
00000190: facb 333b 802b 2abe 2685 a33e 1282 463e
000001a0: e2a1 3fbe ee4b d3bd 3b88 0cbf 3f00 183e
000001b0: acdc 23bd 8a2a 8d3c 510e 8bbe 165b 8a3e
000001c0: 6423 5bbe 1e60 b0be 6433 713e 6cde 563e
000001d0: 9df3 edbd 8c66 a93e fda1 debd 86d0 033e
000001e0: c542 ebbd 04f8 90be 796d 0b3d 603c e53d
000001f0: 4083 38bd 3628 263e f87e 6f3e f552 9e3e
00000200: ab2a 75bd 9eb7 683e 2274 19be f87e d5be
00000210: 1974 1ebe 2158 59be f729 c2bd 6ba8 42be
00000220: 8d9e 63bd 69b4 b33e a4c7 4ebe f98a c7be
00000230: f712 dcbd 629f 4dbe 816a fabd 5f9f 27be
00000240: 0a1d 623e ae2f aabe a11a afbd 3898 7ebd
00000250: c370 c8bd 6406 5ebb 015e 2d3d 12d4 5fbe
00000260: 6ff3 3c3d 5177 933c b19d 7a3e e6cc 76be
00000270: 2923 273e 621b b13d e2ed 11be c992 123e
00000280: 9058 68be d906 0f3e d61e b53e 42db abbd
00000290: b139 7ebe 43dc b6be 7adf d33d 192a bb3d
000002a0: 7e49 b53e c7a5 9fbe 2f8c eabd 72c5 16be
000002b0: ae24 e3bd 9280 c43e 0fe1 f1bd bfed acbe
000002c0: 4165 f3bd 2f5d 403e 88d3 b93e c8ed dcbe
000002d0: 2816 a73e f5a1 adbe 7b97 fe3d 4e90 5dbd
000002e0: 0132 fa3d ae88 87be 1e41 85be 05da e03d
000002f0: b54f b1bd 783a d6bb 3772 82be 073f 893e
00000300: bfee f13c 4d31 133e bba1 44be ead4 7ebe
00000310: bf48 2e3e 7d79 85be ad6d ab3a aef5 dc3d
00000320: 2325 11be 6a94 b1be a4bd 72bd 7561 743c
00000330: a8e5 7fbe 2f64 b73e ce00 823e 7d72 e9bd
00000340: 0425 d4bc c2df 6cbe 9976 643e fc2b e73d
00000350: 0b88 2c3e c3d1 fcbd 1242 c13c 254c 93be
00000360: 8b92 51be fddb 53be 7833 e03c 6130 23bc
00000370: 9ca8 093f fee7 823d 206a a8be c7b3 593e
00000380: 0237 82be fceb 50be 7ae8 5bbe ed53 b43e
00000390: 3ad9 35be 747f cb3d 7cfd 9f3e f31c c83d
000003a0: d619 87be b260 b6bc 9051 bfbd 4dd9 1f3e
000003b0: e7a0 f6bd 5d78 b3bd c07c 54be b685 e7bd
000003c0: c849 ec3d 3c7f cd3e 5080 5dbe fdad 37be
000003d0: aa9b ff3d 0202 a3be 7742 243e 5919 d73e
000003e0: 0370 7c3d 1e34 82bd 09c4 a63d 0205 79be
000003f0: a40c d13e 0536 6abe 1d30 c4bd 3b00 50be
-0.31710342 -0.21700299 0.19203095 0.2680389 -0.31846467 0.053357262 0.2149908 0.44041803
-0.36288443 0.24245308 -0.08283151 0.3486098 -0.19902793 -0.33786753 -0.2836622 0.3548848
-0.26179188 0.012657138 -0.22698997 -0.26799798 0.1576608 -0.22465403 0.3703932 0.07901222
-0.13621506 0.070892416 -0.27193132 0.0051107863 -0.11196244 0.037162386 -0.13037206 -0.23303895
-0.32336846 -0.075229585 0.50797725 0.06612934 0.3415301 -0.3493961 0.06112535 -0.23705566
-0.15538566 0.042730834 -0.25465208 0.307644 -0.36352614 0.40002504 -0.15197137 -0.25689495
-0.055196725 -0.21307878 -0.121763654 -0.032183632 -0.030189719 -0.46542987 -0.099376045 0.01190329
0.004282301 -0.02650542 -0.28175327 -0.12211545 0.026778165 0.008472194 -0.051892843 -0.2461568
-0.12522414 -0.22040254 -0.10452895 0.4093514 0.16486542 0.08931326 0.38179183 -0.06613344
0.11705548 -0.09851154 -0.21892507 -0.12027854 -0.20847727 0.34617716 0.07833264 0.0495054
-0.15650338 0.22751755 0.020443749 -0.120730035 0.18851005 0.23357494 -0.32216388 -0.004487883
0.10715879 -0.1279885 0.20236914 -0.07606116 0.2868871 -0.23883405 -0.38881797 -0.15066417
0.35380545 -0.12273024 -0.22057238 -0.3086698 0.0027434812 -0.16618156 0.31937522 0.19385555
-0.18714097 -0.10317217 -0.5489537 0.14843844 -0.04000537 0.017232198 -0.2715936 0.27022618
-0.21400219 -0.34448332 0.2355476 0.20983285 -0.11618731 0.3308605 -0.108707406 0.12872514
-0.11487345 -0.2831422 0.034039948 0.11193156 -0.045047045 0.16226277 0.23388278 0.30922666
-0.059855144 0.22726294 -0.14985707 -0.41698432 -0.15473975 -0.21225025 -0.094806604 -0.19009559
-0.055571128 0.3509858 -0.20193344 -0.38973215 -0.10745805 -0.20080331 -0.12227345 -0.16369389
0.2208139 -0.33239502 -0.08550001 -0.062156886 -0.097871326 -0.003387832 0.042325977 -0.21858242
0.046130594 0.01800123 0.24474217 -0.241016 0.16322006 0.08647801 -0.14250901 0.14313807
-0.22690034 0.13967456 0.35375088 -0.083914295 -0.24826695 -0.3571492 0.10345359 0.09138889
0.35407633 -0.31181166 -0.11452519 -0.14723757 -0.110909805 0.3837934 -0.11810505 -0.33775136
-0.11884547 0.18785547 0.36294198 -0.43150163 0.3263409 -0.33912626 0.12431236 -0.054092698
0.12216569 -0.26471466 -0.26026243 0.10979084 -0.08657781 -0.0065377317 -0.25477764 0.268059
0.029532788 0.14374276 -0.1920232 -0.24885908 0.17019938 -0.2606925 0.001307895 0.10789047
-0.14174323 -0.34683543 -0.059262887 0.014915814 -0.2498995 0.35818622 0.2539124 -0.1139879
-0.025896557 -0.23132232 0.22310866 0.11287686 0.16848771 -0.123446964 0.023591075 -0.2876903
-0.20466058 -0.20689388 0.027368292 -0.009960265 0.537729 0.06391905 -0.32893467 0.21259986
-0.25432593 -0.20402521 -0.21475402 0.3522028 -0.17758647 0.09936419 0.3124808 0.097711466
-0.263869 -0.022262905 -0.09341729 0.15610237 -0.120424084 -0.08763192 -0.20750713 -0.113048
0.1153751 0.40136135 -0.21630979 -0.17937465 0.124808624 -0.3183747 0.1604098 0.42011526
0.06163026 -0.06357597 0.081428595 -0.24318317 0.40829957 -0.2287217 -0.095794894 -0.20312588

conv1.bias f4 [32]
00000000: 6478 96be b204 b23e 2db3 f4bd 6a68 ddbd
00000010: 6791 973e 55a5 96bd 6654 9ebd 52eb 03bf
00000020: 6a4b 013e 8c15 93be acfd af3e d3e4 553e
00000030: aabf efbd 16ce 25bd 184b 85be 470a 083e
00000040: 4674 8d3e ece3 bfbe 7e0f e1bd 2b6d 07bd
00000050: 79a6 16bc 09a4 0abe 49ae 77bd f2e0 2abe
00000060: 1d99 9bbe baab 1fbe 63b1 6fbe 1c78 cabe
00000070: 6b7f 623e 3369 62be 5a9b 61bd b1f5 a8be
-0.29388726 0.34769207 -0.119482376 -0.10810931 0.2960312 -0.07355753 -0.077309415 -0.51530945
0.12626424 -0.28727376 0.34373224 0.20888071 -0.11706479 -0.040479742 -0.26033854 0.1328517
0.27627772 -0.37478578 -0.10989283 -0.033063095 -0.009194964 -0.13539137 -0.060468946 -0.16687372
-0.30390254 -0.15592852 -0.23407511 -0.3954476 0.22118919 -0.22110443 -0.055079795 -0.32999948

conv2.weight f4 [64, 32, 3, 3]
00000000: e9d3 f93d dea8 b4bd 59e5 f4bd 5d48 93bd
00000010: 7baf fa3d 00c0 a6bd 5452 083e f524 bf3d
00000020: 370a 3abe 23e3 333e 4b77 b0be eeb4 88bd
00000030: 4ff5 9d3e a3e9 32bd 8bc4 13bd b198 c6bd
00000040: d971 99bd 0494 4cbe f12d 9d3b 71eb 1bbe
00000050: 676b 20bc 424d a63d a892 7abe 508b d7bd
00000060: 9990 eabd cbbf f3bd 1d8f 243e c415 ea3d
00000070: 3849 9fbe 01ba 4a3d 2ab0 63bd 9a97 0fbe
00000080: f7db ec3e d56f 1abe 2469 ff3d fe63 0f3b
00000090: 9d18 433e 1c88 72be b7dd 333d e00b 9e3d
000000a0: ff7c 8abe 999e 10be 996a e8bd 70f2 18bd
000000b0: 8add d83d 9700 513d a2c6 19be 94c7 f83d
000000c0: 9440 82bd 4905 31be d70a 0b3e 43cf 99bd
000000d0: c8aa bebd a960 bfbd 2408 203c 2157 3cbd
000000e0: 8992 643d 9346 f6bd 984e 9bbd d5e0 ca3d
000000f0: 2eb6 13be 6cec d53c 2e0f 5cbc 37c5 12be
00000100: 96c9 aebc 059f 04be 97e4 9ebb cacd 44be
00000110: f325 bfbd 005a 9cbc 9bd6 f2bd 9f29 953e
00000120: c096 7abd 5997 14be fe37 6dbd b429 51be
00000130: 358a 6ebd 08a2 49be 039d 6c3d 9c2c 073e
00000140: 6b94 873e 37aa 29be fc14 11bd 2018 8f3d
00000150: ed5d cfbc cb2c 3fbe f3ae ccbd 11c1 51be
00000160: e957 dfbd 46db afbe 26fa 163e 2ff1 babe
00000170: 6fcb 353c ef23 863e 8d36 77bc 4fb2 51bd
00000180: 456b 95bd c88d 2ebe 0dd0 9ebd 50f7 b9bd
00000190: e037 a43a d27e e9bc 5d9e e8bc 15c1 c2bd
000001a0: dfbc 4abe 6c2b a6bd d9e2 10be fb5a cfbd
000001b0: 6f63 0dbe 750f 83be 4c12 293d 6371 473e
000001c0: 987f d9bd d0e7 233d 983c 3e3e 6564 edbd
000001d0: d3d6 26bd 2841 553d d4c3 e4be d830 2abd
000001e0: 5ee3 9f3d e4be 273d ec25 81bc 23ac d43a
000001f0: 050b e73d 8a32 25be f1a8 1bbe 3256 fb3c
00000200: 439f 833c 6ea5 ee3d 42ab b53c 48c7 ed3d
00000210: 1d29 c8bd e5e6 31be c5e5 9fbd 3380 a73e
00000220: be6f 203b 3094 bfbc 8704 0b3e 2c70 ac3e
00000230: 68b1 843d 06a5 b0bc f7ed a0bd 1b45 623e
00000240: 0b94 9d3c 2ef8 36be 5c42 ca3d 1be8 173d
00000250: 92f0 f53d fbcd b2bc 5e89 c9bd d93b ebbd
00000260: e08b 7c3d b3ec 3fbd c7d6 613e f860 80bb
00000270: 62a7 03be 353d 3ebd 0abe 6bbd 8175 9abd
00000280: 9451 56bd 10e5 5ebd da9d b53d 2087 bfba
00000290: 2e67 3cbe 236c ff3c 65e7 25be 2805 df3d
000002a0: a38f 54be d827 d9bc 93e1 fe3d 902c 843e
000002b0: c640 e13c e045 fcbd a3bd 8b3e 63c8 773e
000002c0: 8d80 33bd 2b7d 9cbd abc1 253e 631a 44bd
000002d0: b3cd 3d3e 2326 82be 6e92 8d3e 2089 48bd
000002e0: ec86 d9be 059e efbb 6b7c 82bd a8d9 ee3d
000002f0: 905b f4bd 5c16 a13d f48e ee3d 59c9 bdbd
00000300: c5db 603e e4a3 083e c855 98bd 5425 cabd
00000310: d57f d03c 1264 96bd fd1d 0dbd 831a 81bd
00000320: 7a41 efbc 3bb3 72bd 1ee1 05bc 9549 393e
00000330: 9b06 97bc 86e8 8dbc a55b ef3d 6f26 48be
00000340: 7b3f 24be 2ee9 8d3b 3681 25be 31ed efbd
00000350: f955 9dbe 8607 b53d 323f 09be bfd9 49be
00000360: b2b5 4fbd f995 23be ad76 c33c a320 7f3d
00000370: a785 cabe ec1e 9dbd 25dd cfbd ac38 17be
00000380: 1815 5abd 9c21 9d3e 2dd1 1dbd 1d6d 03bc
00000390: 663d 813d 661e 413d e127 17be 868c 1cbd
000003a0: 9c3c babd b688 af3d 3d27 8bbe d439 d7bd
000003b0: 37d9 4fbe 12ad febd ec8a 6cbd ce54 1fbc
000003c0: 819a 9f3b 3b42 f3bd aa39 9cbd aa53 24be
000003d0: 76f0 a33d 19c0 43bb 2528 ed3d 863f 823c
000003e0: 7f55 92be 9c18 153e 1b6c 7dbd ad59 41be
000003f0: bc9e 58be 856e 93be eaed 0d3e a50d 373e
0.12198622 -0.08821271 -0.11957807 -0.071915366 0.122405015 -0.0814209 0.13312656 0.09333221
-0.18167959 0.17567115 -0.34466013 -0.066751346 0.30851218 -0.043679845 -0.03607611 -0.09697092
-0.07492418 -0.19978338 0.0047967364 -0.15226533 -0.009791232 0.081202045 -0.24470007 -0.105246186
-0.11453361 -0.11901816 0.16070218 0.11429933 -0.3111055 0.049493793 -0.055587925 -0.14022675
0.4626157 -0.15081723 0.12471226 0.0021879668 0.19052358 -0.23684734 0.043912616 0.07717109
-0.2704849 -0.14123 -0.11348457 -0.03734058 0.1058913 0.051025953 -0.15017179 0.121474415
-0.063599735 -0.17287172 0.13578354 -0.07510235 -0.09309918 -0.09344608 0.009767566 -0.04598153
0.05580381 -0.1202518 -0.0758335 0.099061646 -0.14424965 0.026113711 -0.0134313535 -0.14333044
-0.021336358 -0.12951286 -0.0048490274 -0.19219127 -0.0933341 -0.019085884 -0.11857339 0.29133317
-0.061178923 -0.1451086 -0.057914726 -0.20426065 -0.058237273 -0.19690716 0.057766926 0.13200611
0.2648042 -0.16568838 -0.035420403 0.06987023 -0.025313342 -0.18669431 -0.099943064 -0.20483805
-0.109054394 -0.3434698 0.14743862 -0.36512133 0.011095866 0.2619929 -0.0150886895 -0.05119544
-0.07295851 -0.17046273 -0.07754526 -0.09080374 0.0012528859 -0.028502855 -0.028395826 -0.09509484
-0.19798611 -0.08113751 -0.14149036 -0.10124775 -0.13807462 -0.2559773 0.041277215 0.19476847
-0.1062004 0.040015996 0.18577802 -0.11591414 -0.040732216 0.05206409 -0.44680655 -0.041550487
0.07807039 0.04095353 -0.015765153 0.0016225617 0.11281399 -0.1613256 -0.15201165 0.03068075
0.016067153 0.11652647 0.022176389 0.116102755 -0.09773467 -0.17373236 -0.07807497 0.32714996
0.0024480666 -0.023386091 0.13575946 0.3367933 0.0647915 -0.021563064 -0.07857888 0.22096674
0.019235631 -0.1786811 0.09875938 0.037086587 0.12008776 -0.021826735 -0.09840654 -0.114860244
0.061656833 -0.046856593 0.22054587 -0.0039178096 -0.1285682 -0.04644509 -0.057554282 -0.07541943
-0.052323893 -0.05441767 0.088679984 -0.0014612414 -0.18398735 0.031179493 -0.16201551 0.10889655
-0.20757918 -0.026508257 0.124453686 0.25815248 0.027496707 -0.12318015 0.2729312 0.24197535
-0.043823767 -0.076410614 0.1618716 -0.047876727 0.185355 -0.2541972 0.2765078 -0.048958898
-0.4248575 -0.0073125386 -0.06371387 0.116626084 -0.11931527 0.07865593 0.1164836 -0.0926692
0.21958835 0.1334377 -0.074382365 -0.09870401 0.02545158 -0.07343306 -0.034452427 -0.06303885
-0.029206026 -0.05925296 -0.008171348 0.18094476 -0.018435767 -0.01732279 0.11687402 -0.19545911
-0.16039841 0.0043307757 -0.16162571 -0.117151625 -0.30729654 0.088393256 -0.13403013 -0.1971197
-0.050710388 -0.15975179 0.0238603 0.062286984 -0.39555094 -0.076719135 -0.10149602 -0.14767712
-0.053242773 0.30689704 -0.038529564 -0.00802162 0.06310539 0.04714813 -0.14761306 -0.03821995
-0.090935916 0.085709974 -0.27178374 -0.10509077 -0.20297705 -0.12435354 -0.057749674 -0.009724809
0.004870713 -0.11877867 -0.07628186 -0.1604754 0.08004849 -0.0029869138 0.115799226 0.015899431
-0.28580853 0.14560169 -0.061870676 -0.18881865 -0.21154302 -0.28795257 0.13860288 0.17876299

conv2.bias f4 [64]
00000000: 11fd 52bd 62b9 a93a 20d8 553d f60e 8fbc
00000010: dd68 dabd b200 bc3c 5e31 8cbc 1c72 093c
00000020: bbc3 ffbc 98cd d6bc 46f0 cd3c e450 d2ba
00000030: 51c0 69ba 7e55 05bd 1c8e fbbc a817 08be
00000040: 53f0 5abd 45e9 3dbd c88c b2bd 879d 95bd
00000050: c7c9 d4bd 04ca 60bd d200 633d 3180 1fbd
00000060: f132 01be 21f7 eabb 32e0 91bd 36e4 2cbe
00000070: a54b cbbd 39a3 043d 3e13 d7bd 4e02 f3bd
00000080: 3e8d aabd cf43 f0bd 9102 0d3d a2bd 6fbd
00000090: 0483 e7bd bcd6 13be 4ad9 033c 72d7 153c
000000a0: fde2 f9bd e4db 90bd f609 9f3c 3560 7fbd
000000b0: ab70 10bd 3f05 24be 70a0 09bd 8fbd 0fbd
000000c0: 1835 ccbc 634c 533c ce8f b23c 60e6 bcbd
000000d0: 6528 4cbd 4648 49be 6d52 0a3d 2a4e 173d
000000e0: bad8 3bbe ff0a f6bd a93c adbd 5ecf 40bc
000000f0: b473 c539 3d04 8c3c b89c 5ebd b37a ecbd
-0.051510874 0.0012948925 0.052208066 -0.017463189 -0.10664532 0.02294955 -0.017113384 0.008389022
-0.031221261 -0.026221082 0.025138985 -0.0016045836 -0.0008916902 -0.032552235 -0.030707411 -0.13290274
-0.053451847 -0.04636504 -0.08718258 -0.073054366 -0.103900485 -0.054880157 0.055420704 -0.038940612
-0.12617089 -0.0071705733 -0.0712284 -0.1688393 -0.099265374 0.032382224 -0.10501717 -0.11865674
-0.08327721 -0.117316835 0.034426276 -0.058530457 -0.11304286 -0.14437383 0.008047411 0.009145604
-0.12201498 -0.07073191 0.01941393 -0.06234761 -0.0352637 -0.16017626 -0.03360027 -0.035092887
-0.02492766 0.01289663 0.021797087 -0.09223628 -0.04984321 -0.19656476 0.033770014 0.036939777
-0.18344393 -0.12013816 -0.08458836 -0.01176819 0.00037660974 0.017091865 -0.054348677 -0.115468405

fc1.weight f4 [128, 576]
00000000: f1a1 18bd 08e8 05bd 6045 fabc 2340 033d
00000010: 0a4f c93c 48eb adbb 96f3 c0bc 3002 3f3b
00000020: 0715 bbbc 7199 5cbd a1a5 2cbd c03d 4d3c
00000030: 567c 51bd a97f e6bc c03c 893c ffd4 a3bc
00000040: d162 b13c 6619 a53c 718a b1bd d333 113d
00000050: d0f1 9fbd 975b eabc 7607 9c3c 3f33 3a3c
00000060: 3ac8 2dbd cf8c 3ebd 30c1 39bd 9725 50bd
00000070: be80 a43c b0f8 2f3b bbf0 a7bc abf9 cdbc
00000080: a80b a6bb 7c70 8a3b f048 43bb 21f9 073d
00000090: c0e0 67bd 515f 11bd a0be 883c 44b8 35bd
000000a0: 800e 84bb 3acd 3a3b 377d d6bc de40 38bd
000000b0: 5100 42bd ae13 9a3b 08e0 99bd e5d8 62bc
000000c0: 7a40 26bd e09f d33a 9862 a3bc 0e63 50bc
000000d0: a218 18bd 4bef 35bd 9b93 f63b 945b 14bd
000000e0: 1b1e 02bc 1f96 e03b c8b5 cf3b bff6 75bc
000000f0: 2dc0 08bc 6646 a7bc 22f7 6c3c c084 f8bb
00000100: 2004 6b3b 005e 63bd 207b 903a 09fa 8cbc
00000110: 57b3 553c f644 85bd 24fe a73a 7aac bf3c
00000120: d653 af3c df2b 36bc da44 b03c 92fe a03c
00000130: f876 d53b 9f7f 013d e3f7 27bd 8707 233d
00000140: 5919 1a3d 713e 3abd e7d4 80bc 6188 11bd
00000150: 52bc 66bd f8bd 663c de0e 39bc ea0f 66bc
00000160: de1d a23a c100 c53c d08f 20bc 5545 613c
00000170: b623 a2bd 6dab 12bd 1a49 62bd 98ec 5ebc
00000180: 86cb 99bc 88cb da3b 1a73 efbc 730a a83b
00000190: 9493 36bd 7671 c3bc 3abc fa3c b476 05bc
000001a0: 91b2 cbbc acb6 313c f5d4 1d3d 2596 c33c
000001b0: f891 9b3c e844 b8bb 66be 41bd e74a 8a3c
000001c0: 3c7c d1bc 5a8a 0cbc 7255 5a3b 489f 0cbd
000001d0: 1b80 b8bc 2051 99ba 7c4f 283c 1a51 c33c
000001e0: 1f92 17bd f6a4 11ba bd32 4bbc 9fb9 a8bc
000001f0: d0b8 453c 18c0 6cbd 66f0 5cbb 4844 85bc
00000200: 58ba 13bd 5e6c 55bd 3494 16bd cca7 0bbc
00000210: 4468 0a3c 1fff 9f3c 36cf d33c e88f 93bb
00000220: db77 28bd be90 a93c eec7 0fbd e3d6 64bd
00000230: 827d cb3c 18aa fd3b 9bfe 23bd 5bcf 2dbd
00000240: b8ae d0bc fbef 843b 8ef3 10bd a790 c23c
00000250: 0134 3cbd b4ed 1dbd 5c47 d5bc 43a8 53bd
00000260: 12fa 13bd a59f 81bd 09a9 7ebc e0cb e63a
00000270: 0574 3abd 383e c23b c700 b9ba 4e41 bdbc
00000280: a2a8 48bc 0875 0a3c 8a2b f73c bbac 0b3d
00000290: 3370 1e3d e8f9 02bd 9427 02bd 6082 05bc
000002a0: 5c24 473c 0bb1 d3bc b01f 3dbb 401c f63b
000002b0: 086b 8b3c b2e0 cf3c 4007 3b3a 0802 a4bc
000002c0: 9ea8 873c 0bb1 b6bc 17f4 dcbc c5b5 163d
000002d0: 6cac b43c a9d2 5d3b 72a2 b33c 7156 dfbb
000002e0: cb7d cdbc 52ce 1cbd 3974 98bd c727 53bd
000002f0: 3acf a63c 84fa 4c3c e06d 4ebc 1e27 fcbc
00000300: 80ad cc3b 4663 d6bc 12ab b33c 8e79 e2bb
00000310: f257 fb3c bb39 0c3d c3f6 b2bc e151 fcbb
00000320: c06d 4cbd d078 6a3c 78ca 44bc 93fa 5dbc
00000330: 114f 3cbc ecc8 63bd d807 71bc dd42 b9bc
00000340: 908e 183b ec9a 72bd 83d0 15bc f845 15bd
00000350: 64f2 14bd 0a98 823c 3fa6 cf3b f9dd 0bbc
00000360: f90f 45bc b49c 74bc 4853 aebb 1286 b1bc
00000370: fa72 423c 5931 82bd 1e62 2dbc 153d edbc
00000380: d0b8 013b 4cac 25bd 7388 8f3c 9ec0 6abc
00000390: 633b 84bc 4afe 6cbc d1d8 16bd cedd 9e3c
000003a0: e71a a0bc 469a 103c 0695 f5bc e081 88ba
000003b0: 9017 6b3c 9b06 0abd 581e 833c b559 3fbd
000003c0: b70b 19bd 1a8a d63c 53a7 243c 841e e6bc
000003d0: 2e21 fcbb f063 2dbd da8c 4fbc 4444 85bc
000003e0: 2df2 10bd 0c1d a93c b4b7 c6bb 9bef 003c
000003f0: 8dad 4a3c a28d a33c 23df fbbc b3fa 82bc
-0.037263814 -0.032691985 -0.030550659 0.032043587 0.024573822 -0.0053075887 -0.02355365 0.002914559
-0.022837175 -0.05385727 -0.042150144 0.012526929 -0.051143967 -0.028137045 0.0167526 -0.019999025
0.021653565 0.020153712 -0.08668984 0.035449814 -0.07809794 -0.028608127 0.019046526 0.011364757
-0.04242728 -0.046521004 -0.045350254 -0.0508171 0.02008092 0.002685111 -0.020500531 -0.025143465
-0.0050673075 0.004224835 -0.0029798113 0.033196572 -0.056610823 -0.03549129 0.01669246 -0.044365183
-0.004030049 0.0028503672 -0.026182754 -0.044983737 -0.047363583 0.004702053 -0.07513434 -0.013845657
-0.040588833 0.0016145669 -0.019944474 -0.012718929 -0.037132867 -0.04441766 0.00752492 -0.03622015
-0.007941748 0.0068538333 0.0063388087 -0.015012442 -0.0083465995 -0.02041931 0.014463218 -0.0075841844
0.0035860613 -0.055509567 0.0011023022 -0.01720907 0.013043246 -0.06507294 0.0012816829 0.023397673
0.02140228 -0.011118858 0.021517206 0.019652639 0.0065144263 0.03161585 -0.041007888 0.0398021
0.03762183 -0.045469705 -0.01572652 -0.03553045 -0.05633194 0.014083378 -0.0112950485 -0.01404188
0.001236852 0.024048211 -0.009799913 0.01374944 -0.079169676 -0.035808016 -0.055245496 -0.013606213
-0.018773805 0.006677095 -0.02922969 0.005128199 -0.044574335 -0.023857813 0.030607332 -0.008145977
-0.02486542 0.010846775 0.03853317 0.023875305 0.018990502 -0.0056234486 -0.04730072 0.01688142
-0.025571935 -0.008577907 0.003331509 -0.03433159 -0.022522023 -0.0011697151 0.010272857 0.023842383
-0.037004586 -0.0005555892 -0.012402234 -0.020596324 0.0120679885 -0.057800382 -0.0033712625 -0.01626791
-0.036066383 -0.0521053 -0.03676243 -0.008523893 0.00844771 0.01953083 0.025855642 -0.004503239
-0.041129928 0.020698901 -0.035102777 -0.055868994 0.02484012 0.007741224 -0.040037733 -0.042434078
-0.025473937 0.004056928 -0.03538852 0.023750616 -0.045948032 -0.03855677 -0.026035003 -0.05167414
-0.036127158 -0.06329278 -0.015543231 0.0017608367 -0.0455208 0.005927827 -0.0014114612 -0.023102429
-0.012247236 0.008450754 0.030172128 0.034100275 0.03868122 -0.03197661 -0.031776026 -0.00814876
0.012154665 -0.025841257 -0.0028857999 0.007510692 0.01701881 0.025375698 0.0007134564 -0.0200205
0.016559895 -0.022301218 -0.02697186 0.036794443 0.022054873 0.0033847487 0.021928046 -0.0068157245
-0.025084397 -0.0382827 -0.07444043 -0.051551607 0.020362485 0.012510899 -0.012599438 -0.030780371
0.0062462687 -0.026170384 0.021932159 -0.006911463 0.030681584 0.034234744 -0.02184618 -0.0077001904
-0.049909353 0.0143110305 -0.012011163 -0.013548511 -0.01149346 -0.055611536 -0.014711343 -0.02261489
0.0023278333 -0.059229776 -0.009143951 -0.03644368 -0.036363974 0.015941638 0.0063369568 -0.008536809
-0.012027734 -0.014929939 -0.0053199865 -0.021670375 0.011868233 -0.063570686 -0.010582475 -0.02895979
0.0019793995 -0.04044752 0.017521119 -0.01432815 -0.016141599 -0.014464924 -0.036827866 0.019392874
-0.019544078 0.008825844 -0.029978286 -0.0010414682 0.014348879 -0.033697706 0.01600568 -0.04671641
-0.037364688 0.026188899 0.010049659 -0.028090723 -0.007694385 -0.042331636 -0.012667859 -0.016267903
-0.035387207 0.020643733 -0.0060643796 0.007869626 0.012370479 0.019964997 -0.030746048 -0.015988683

fc1.bias f4 [128]
00000000: 93cb 02bd 4529 ebbb 7a9a 973e 7ff4 92bc
00000010: 9710 66bd 2e68 8dbd dd06 4abc fac5 51bd
00000020: 3185 dabd d41f 86bd dfd8 4a3c 8bd0 e73d
00000030: cc27 5cbd 2b41 ca39 a366 97bd 6fb3 6bbd
00000040: 9233 373d ae39 e23b 8d3b 9fbc 7d48 b1bd
00000050: 382c 853e 0104 723e 3403 3f3d 6f11 04bd
00000060: d6ab 13bc ccbf 1c3c f282 123c 44b6 e23d
00000070: b622 c2bc 23d3 66bd d1a7 4bbb de39 97bd
00000080: f88e ad3c ccd5 153d 2670 ef3c 25bb cebd
00000090: 54f2 8d3e 7995 6cbd 1f37 83bd cdc8 9dbd
000000a0: 346f fcbd 2f34 91bd b053 e1bd 9549 5fbd
000000b0: 0e10 4f3c d07a 29bd eacd 48bd 1f8b 1bbc
000000c0: fdb0 61bd 3e7e 6cbd 1f9a f2bd 9e62 00be
000000d0: 9d31 0ebb cdcf 7bbc 64e5 88bc abb1 433c
000000e0: 24ef 38bc f471 63bd 0f83 3abd c7ec 76bd
000000f0: 8160 d9bd e5f7 94bd 8854 a9bd c0b5 3cbd
00000100: d9f6 423c 92f5 adbc 4644 c43c 9051 5ebc
00000110: 25b0 d4bc 0bd2 b1bc f561 e0bc 5447 aabd
00000120: cb57 50bb bc64 e4bb e177 cdbc 17bd cd3d
00000130: 921a 6fbd 2c8c b9bc c6fa 16be 045f 30be
00000140: 54bb d6bd ef76 05bd 47a4 0a3e a466 91ba
00000150: 6488 003d cef8 8cbd 3f90 aabc 1961 23be
00000160: fbbb 623c 9d9f d1bd 07c3 11bd 42cd 27bd
00000170: d125 11bd 6a11 81bc 625b be3c e5eb 8abd
00000180: 872f 6c3e 05e8 4bbb 9c50 fdbd 73f0 33bd
00000190: c8d1 babd c3c1 5bbd 8ec1 06bd be75 87bd
000001a0: 2477 eebc 5f91 cf3b 5816 1dbe a8b6 d1bd
000001b0: 5f33 7a3d 076e 7abd 6ae4 df3d bd92 26bd
000001c0: f4e7 6fbd f1f8 213d b87b 87bd 7498 96bc
000001d0: 9650 55bd a12f 00be 6989 d5bd b6a3 03be
000001e0: 30ca 8b3e 989b 6bbc 4d2a 64bd 4e68 b2bc
000001f0: b1c1 413b fccd 25bc 9722 cebc 16f9 69bb
-0.031932425 -0.0071765506 0.29610044 -0.01793885 -0.056168165 -0.06904636 -0.012330738 -0.051214196
-0.106699355 -0.065490395 0.012380808 0.11319073 -0.05374889 0.00038576996 -0.07392623 -0.057544168
0.044726916 0.0069038486 -0.019437576 -0.08656404 0.260103 0.2363434 0.046633914 -0.03224319
-0.009013137 0.009567212 0.008942353 0.11069921 -0.023698192 -0.0563537 -0.0031075368 -0.07384084
0.021186337 0.036580846 0.029228281 -0.10094289 0.27723944 -0.057759736 -0.06406998 -0.07704315
-0.12325898 -0.07090031 -0.1100229 -0.054513533 0.012638105 -0.04137689 -0.0490245 -0.009493618
-0.05510043 -0.05773758 -0.118458025 -0.1253762 -0.0021697052 -0.015369368 -0.016710944 0.011944215
-0.011287484 -0.055528596 -0.045535143 -0.060284402 -0.1061411 -0.07273845 -0.08268076 -0.046071768
0.011899673 -0.021235261 0.023958337 -0.013569251 -0.025962899 -0.021706602 -0.02739046 -0.08314386
-0.003179061 -0.0069700163 -0.025081577 0.10045832 -0.05837495 -0.022649847 -0.147441 -0.17223746
-0.10484949 -0.032584127 0.1353923 -0.0011093211 0.031380072 -0.06883393 -0.020820735 -0.15955009
0.013838763 -0.10235522 -0.035586383 -0.040967233 -0.035436455 -0.015755374 0.023236934 -0.067832746
0.23065005 -0.0031113636 -0.12368891 -0.043930482 -0.09122044 -0.053651582 -0.032899432 -0.066142544
-0.029109545 0.0063344683 -0.15340555 -0.10239917 0.061084148 -0.061140087 0.109322384 -0.040667284
-0.058570817 0.03954405 -0.06615394 -0.018383242 -0.052078806 -0.12518169 -0.104265995 -0.1285542
0.27302694 -0.014380358 -0.055704404 -0.021778252 0.0029564912 -0.010119911 -0.025162978 -0.0035701445

fc2.weight f4 [64, 128]
00000000: e4c4 61bd 8978 b2be f359 0bbf 277d cbbc
00000010: b409 86bd e64c 1ebe b418 4abd efa3 3f3d
00000020: 1a22 e7be 7508 4f3e 0709 0d3d ac27 603e
00000030: b71a 2b3c f639 823d 263e 9dbe b62f ce3c
00000040: 3b88 2dbe c442 5c3d 00b6 01be db26 7fbe
00000050: 7ac7 f7be 4a0f aabe 7151 8ebe b499 8c3c
00000060: f405 8f3b f03c ee3c 407c d33d 9fe7 6a3e
00000070: 5a1f 45be dc18 783c c129 88bd 72d9 b6be
00000080: d3f9 2e3d 8a72 653d 2755 68be 28b6 b23d
00000090: 0e3a c6be 1b7f 43bd 599b e3bd 097a 36bd
000000a0: abff c73d 876a 363c 626f 2d3e 3ceb 87be
000000b0: 498e 95bd a692 f2bc f306 0ebe a8f7 d0bd
000000c0: c515 b03d 4d07 ac3d bbed 1b3e ecc0 3c3a
000000d0: caa3 7fbd 4e15 253c 8d20 753d a6b1 27be
000000e0: 5511 51bd 9216 08bd bd68 05bd 83fa 1a3d
000000f0: 3811 49be e0f7 44be b638 c9be e14f 5cbd
00000100: 46c0 033d 51fe dd3d 4b97 61be 088c 3cbd
00000110: 80a6 f03c 16c8 b0bc 160c acbd 5a04 cfbe
00000120: a261 51bd cc5e b4bd 4c9e 773e 3b6d 073e
00000130: b9e5 12bd 6196 5d3e 2235 f8bd 984e d23d
00000140: d1a4 c7bc 45bd 43be a48a 04be 5dfd bcbd
00000150: 146d a23d cf2b 19be e70d a73d a22f 0a3e
00000160: 0381 93bc 877d 013e ae8f b2bd b5e1 09be
00000170: 68e6 1d3d b6b3 083d 584e 87bd dbe9 c83c
00000180: d119 b23e 9513 c5bd 9b48 15be e6f8 c2bd
00000190: bbd6 f63c 2c0b c73d 6098 6a3d 71f9 b0bd
000001a0: fc1c 44bd 9f1e 5abc b075 ca3c f044 80be
000001b0: e4b9 133e a4a5 66bd 2d8c 343e 17ea 85bd
000001c0: c077 e2bc 743a c0bc 3389 90be a1c2 513d
000001d0: 77c6 1fbd e73e 873e 819b d33d e3da 303d
000001e0: ae1f aa3e c9cc aa3d 1e31 343e 81a9 583e
000001f0: 9df8 fbbc bf1d a53b 220c 51bc 9a68 ff3c
00000200: 2fe6 813d ed14 603d a406 843c 1e2e ee3c
00000210: 2185 93ba f36a 44bd ee30 8dbd c711 b2bd
00000220: a58c 613d 20b1 acbb b814 87bd d6e1 c53b
00000230: 3a58 2cbd e89c 893d eae0 bdbd 688b aebc
00000240: a382 d63c 2cd4 bd3c 6394 c9bd 504a 5c3d
00000250: 680e b5bd 1a56 f0bd 5f1f 2b3c e011 9fbc
00000260: af9f d6bd db25 93bc 5754 b3bd c24d 07bd
00000270: 4907 f8bc f49d d3bc 463a efbc b659 09bd
00000280: abea be3c 14cf 173d 916d 71bb ac2c e53c
00000290: 6e10 6cbd 188b 993c 9bbf 4e3d 20e4 ea3b
000002a0: 5aee aebd 2a31 b2bd 2420 d2bd ca4a 49bd
000002b0: e041 4cbb 820d 1c3d b238 6abd 1f8e 52bd
000002c0: b7a8 8d3d 0a26 b2bd 286a 14be 0b6a 3fbd
000002d0: a044 00bb 1c86 56bd 0c5f dabc a77e 85bd
000002e0: 6ec4 0ebe 3d9b 96bd 6456 153d 9fea 973d
000002f0: 7830 27bd 4c70 d8bc 788f 663d e988 ddbd
00000300: 934c b7bc dbd1 b3bd eb03 f83c 10e8 933c
00000310: 2d4e 1cbd 2464 8b3d 46c2 b3bd 8e40 b1bc
00000320: 3609 9c3a fd41 5a3d 46e6 0e3d 5091 03be
00000330: c108 2abd 549f 993c 3d39 9fbd 168a 2f3d
00000340: a27c 7ebd d3a0 8ebd 3070 dd3b 5686 08be
00000350: ac34 5f3d b5f7 01be eec9 f3bc 65fb 873d
00000360: 5d63 a2bb 3bc5 e33b 601b 44bc b0c1 a4bd
00000370: 825d 793d eadd 90bd 7efe 473c 376b 3ebc
00000380: 1df2 843d 174f aa3d ef2b 6a3d 90d2 ac3c
00000390: 502a c6bb 34b5 2fbd 4d5c 873d 83ae adbc
000003a0: bf17 52bd aaab 88bc b820 98bd ba3b b7bd
000003b0: d748 1fbc 31b8 65bd 7f13 86bd 84f6 48bd
000003c0: 8e87 5e3d 3cf9 11bd 19df 03bd 644f 5ebd
000003d0: dc87 f7bd ac79 18bd 8d4a 87bd 9d58 aabc
000003e0: d417 0f3d 601e 9a3c 3d98 c5bc 86a4 abbc
000003f0: d08f adbd 4fdf 3dbd c8c7 cbbc 266f b4bd
-0.05511941 -0.34857586 -0.54434127 -0.02483995 -0.065448195 -0.15459022 -0.049339965 0.0467872
-0.45143205 0.2021807 0.034432437 0.21890134 0.010443381 0.063587114 -0.30711478 0.025169235
-0.16946499 0.05377461 -0.12667084 -0.24917166 -0.48394376 -0.3321479 -0.2779651 0.017163135
0.0043647233 0.029081792 0.10326433 0.22939919 -0.19250241 0.015142646 -0.06648589 -0.35712773
0.04271872 0.056017436 -0.22688733 0.0872615 -0.38716167 -0.04772864 -0.111136146 -0.044549976
0.09765562 0.011133797 0.1693702 -0.26546657 -0.07302529 -0.029610943 -0.13869838 -0.10203487
0.08597902 0.0839983 0.15227406 0.00072003785 -0.06241206 0.01007588 0.059845496 -0.16376361
-0.05104192 -0.03322465 -0.03257059 0.037836563 -0.19635475 -0.19235182 -0.3930108 -0.053787116
0.032165788 0.10839523 -0.2203037 -0.04603198 0.029376268 -0.021579783 -0.08400743 -0.40433007
-0.0511185 -0.088071436 0.24181479 0.13225262 -0.03586361 0.21639396 -0.12119509 0.10268897
-0.024370583 -0.1911517 -0.12943512 -0.09228013 0.07930961 -0.14958118 0.081569485 0.13494733
-0.018005854 0.12645541 -0.08718811 -0.13465007 0.03854981 0.03337451 -0.0660674 0.024525573
0.3478532 -0.096228756 -0.14578478 -0.0952013 0.030131688 0.09718928 0.057274222 -0.08641327
-0.047879204 -0.013312965 0.02471432 -0.25052595 0.1442638 -0.05631031 0.17631598 -0.0653879
-0.027644992 -0.023465373 -0.28229675 0.051211003 -0.03900763 0.26415178 0.103323944 0.043177497
0.33227295 0.08339841 0.17596862 0.2115841 -0.030758196 0.0050389464 -0.01275924 0.031177808
0.06342732 0.054707456 0.016116448 0.029074725 -0.0011254885 -0.047953557 -0.06894098 -0.08694797
0.05506577 -0.0052701384 -0.06595749 0.0060388846 -0.042076327 0.067193806 -0.092714146 -0.021306708
0.02618534 0.02317246 -0.09842756 0.053781807 -0.088406384 -0.117351726 0.010444491 -0.019417703
-0.10479676 -0.017962387 -0.08756321 -0.03303314 -0.030276911 -0.025832154 -0.029202592 -0.03353282
0.023305258 0.03706272 -0.0036838988 0.027975403 -0.057632856 0.018743083 0.050475698 0.007168308
-0.08541556 -0.087007836 -0.102600366 -0.04914359 -0.0031167194 0.03809882 -0.057182975 -0.05140507
0.069169454 -0.086986616 -0.1449362 -0.04673199 -0.0019572154 -0.05237399 -0.02665665 -0.06518298
-0.1394212 -0.07353828 0.03645934 0.07417797 -0.040817708 -0.026420735 0.056289166 -0.10817129
-0.02237538 -0.08780261 0.030275306 0.018054992 -0.03816049 0.0680621 -0.08777289 -0.021637227
0.00119046 0.053285588 0.034887575 -0.12848401 -0.041512255 0.018752731 -0.07774589 0.0428563
-0.062130578 -0.069642685 0.0067577586 -0.13332495 0.05449359 -0.12692149 -0.029759374 0.066397466
-0.0049556927 0.006951002 -0.011969417 -0.080447555 0.06088019 -0.07073577 0.012206672 -0.011622242
0.06491492 0.083158664 0.057170805 0.021096498 -0.0060475245 -0.04289742 0.06609402 -0.021201378
-0.051292177 -0.016683418 -0.074281156 -0.08946939 -0.009721956 -0.05608386 -0.06546687 -0.04906322
0.054328494 -0.03563808 -0.032195184 -0.05427493 -0.1208646 -0.03722541 -0.06606016 -0.020794207
0.034934834 0.018813312 -0.024120444 -0.020952474 -0.08474696 -0.04635554 -0.024875537 -0.088102624

fc2.bias f4 [64]
00000000: 38ea 833d a9d9 02be 0b78 8bbd b93d fa3d
00000010: 89ab 34bd fa3e 373e 0d7f f8bd f027 203d
00000020: b4da bd3d aba2 643d ab71 ca3c 778d a2bc
00000030: c2ce 533d e731 e2bd f680 a3bd 38d9 6cbd
00000040: 7a1e 813d 1342 b2bd 9cda 9cbc 25b0 41bd
00000050: 6b91 f53c 4375 05be 59d2 07bd 752e 0d3e
00000060: ce34 4e3d ee4d 03be f1cf 83bd d3a4 3f3e
00000070: c559 de3d 9876 753d 9d58 173e eff2 443e
00000080: 3807 a23d 48d4 b1bc d5d4 56bd 1df2 a53a
00000090: 7767 503e 4c72 493d 3b6c 73bd 5a5b 893e
000000a0: bd81 35bd da3a 403d 013f d13b 7e9a bdbd
000000b0: 4033 c8bd c3d3 9c3e 0b64 173e 4862 703d
000000c0: 8b78 be3d 1bfb 693d 09db bf3c 2ea6 8f3c
000000d0: c579 213e 887b 453b 9c8d 6c3b 2456 c6bd
000000e0: 4749 ab3d f5ab b03d 53e6 1bbe 6993 963d
000000f0: 2dd3 bdbd 697a 16be 9b79 243c 74a0 4d3e
0.06441158 -0.12778343 -0.06810006 0.12218804 -0.0441089 0.17895117 -0.12133608 0.039100587
0.0927023 0.055819195 0.024712404 -0.019842846 0.05171085 -0.11044674 -0.07983582 -0.057824343
0.06304641 -0.08704009 -0.01914721 -0.047287125 0.029976567 -0.13033013 -0.033159588 0.13787253
0.050343327 -0.12822697 -0.06436146 0.18715219 0.10856966 0.059927553 0.14779897 0.19233297
0.07911533 -0.021707669 -0.052449066 0.0012660656 0.20351969 0.049181268 -0.05942939 0.26827508
-0.04431318 0.046931125 0.0063856845 -0.09257983 -0.097754 0.3063031 0.14784257 0.05868748
0.093003355 0.05712424 0.023419874 0.017535295 0.15769108 0.0030133445 0.0036095148 -0.09684399
0.08363586 0.08626548 -0.1522458 0.07352335 -0.09268794 -0.14695133 0.010038759 0.2008074

fc3.weight f4 [3, 64]
00000000: 4ffa 2dbe 2978 ccbc e76f 1abe 8861 483e
00000010: 8703 8dbe e2b3 503e 7caf e2bc e2fd 19bf
00000020: 86af 38bf fc18 b53e 7e18 4fbe 6eed 4a3e
00000030: ff46 56be 3ab3 26be f635 6cbc 963e 1f3d
00000040: 134f 683e 08cc c7bc b1e4 17be 6620 453d
00000050: 511e bebe edb1 a5bd 4f65 e7be bdde 8cbc
00000060: 9fc3 ac3d b95f ebbd 2ed2 45be 7158 4bbe
00000070: b557 973c 9a29 d93e 96c7 d43d e1a9 81bf
00000080: 1e1e aabb ce39 453e d6f7 b43c 39d9 0ebd
00000090: f122 a1bc a553 2fbe ce4a ccbd 419c 923d
000000a0: 8215 8f3c 70a5 99be 2d46 02bf 32a2 7a3e
000000b0: ceb4 cabd ab1f 403e 00d0 343e af84 96be
000000c0: 4365 56be 9713 33ba d684 8e3c 2c17 3b3d
000000d0: 750a 233d 471a 4c3d c1c9 abbe 5ef1 b3bd
000000e0: a432 b1bd 7290 443e fbee 2fbd f0f9 903e
000000f0: bc86 98bd e5cc be3c 43f9 8ebe 1464 433d
00000100: a068 6abe 01a2 90bc ebc8 9cbc b9b3 edbd
00000110: 9c96 af3d df2f 543d adc9 86bd aef0 a63d
00000120: 5150 28bf 3132 75be e5a1 db3d ecf4 9fbe
00000130: d8a6 ab3d 66e7 883c ae21 cbbd db2d abbd
00000140: ce15 cbbe 1d59 6e3d b5a8 70bd ad73 933c
00000150: 6830 1b3c 29dd 48bd b76e c73d f36f 0d3d
00000160: 190b 7d3d d2af 2a3c bfe3 53bd 970d 1a3e
00000170: 513e cf3d 070f 95be 59e5 b53d 5b28 cc3b
00000180: 4e46 25bc 7a17 8fbe 6b0f 933d 78bf f9bd
00000190: 98e3 6a3d 7176 2d3c 368a 48bd bf6a 0a3e
000001a0: d711 dfbd 6c38 95be 133b fa3d e1c6 a2be
000001b0: 8d20 9a3c 5281 2e3e 4d92 bb3d ada4 913d
000001c0: 42c4 133e 9799 c8ba 47e5 8cbc 578e 293d
000001d0: 6014 743d cd82 8c3b 195e 4b3d 5802 b43d
000001e0: c646 b33d 1592 03be 01a1 46bd 6cf7 8bbe
000001f0: a0fe 83bd 58fe bcbd 06e0 04bd ab0e 5e3d
00000200: fe0d 143e 5b2f aa3d 513c 0fbd 06fe babe
00000210: 1b1a de3d c14c 0abf 6dda 94bd 841f bd3d
00000220: c1a1 393f 42fd c3bd 47a6 033e 09ab 1dbe
00000230: f183 ee3d 2644 36bd 9d3d ee3d 8b55 adbe
00000240: 938b 1ebe 95e2 f4bc e6df a3bd 8bde bd3c
00000250: 3508 1c3e 905c e5bc b222 c53d 1bb1 16bf
00000260: 5c8f f3bd 8959 6ebc a657 113b 68a5 0cbe
00000270: 8667 dabc 020e 73bd fe44 c5be 7005 3b3e
00000280: 3b86 503c 64c5 a1be d742 9ebd 9bda 183e
00000290: 4d93 33be a24f 5d3d c861 b63d c382 68be
000002a0: af40 5abd a51d 763e d82f ef3d 9faa 51bd
000002b0: af8b 693c 9127 bfbe b474 c6be a679 afbd
000002c0: a49c f7bc b0e3 863d 9d1c b2bd 317f 643d
000002d0: 8a3c c7be b0b3 853d 71aa eebd def4 da3d
000002e0: b817 223e bbdd 16be 3d16 15bd ef9b 06bf
000002f0: 012d 14bd e252 013d ae2e 1a3e ab67 dcbe
-0.16990016 -0.02495964 -0.1508175 0.19568455 -0.27541754 0.2038112 -0.027671568 -0.6015302
-0.7214283 0.35370624 -0.20224187 0.19817135 -0.2092552 -0.16279307 -0.014417162 0.038878046
0.22686414 -0.024389282 -0.14833333 0.0481266 -0.37132505 -0.08090577 -0.4519448 -0.017196054
0.08435749 -0.11492867 -0.19318458 -0.19857956 0.01847444 0.42414552 0.103896305 -1.0129968
-0.0051915785 0.19260332 0.022090834 -0.03487513 -0.019669982 -0.17121752 -0.09975205 0.07158709
0.01746631 -0.3000903 -0.5088833 0.24475935 -0.09897767 0.1876208 0.1765747 -0.29398105
-0.20937066 -0.0006831227 0.017397325 0.045676395 0.039804894 0.049829748 -0.33552364 -0.087862715
-0.08652237 0.19195727 -0.04295252 0.28315687 -0.074475735 0.02329106 -0.27924547 0.047702864
-0.22891474 -0.017655374 -0.019138774 -0.11606545 0.08573648 0.051803466 -0.06581435 0.08151375
-0.65747553 -0.23944928 0.10724238 -0.31241548 0.08381432 0.016711902 -0.09918533 -0.083583556
-0.39665073 0.058190454 -0.05875464 0.017999494 0.00947199 -0.04903904 0.09737914 0.03453059
0.06177816 0.010417895 -0.051730867 0.15044247 0.10119308 -0.29113027 0.08881635 0.0062303967
-0.010087563 -0.279476 0.07180675 -0.12194723 0.057345957 0.010587321 -0.048959933 0.13517283
-0.108920746 -0.2914461 0.12218299 -0.31792358 0.01881435 0.1704152 0.09158764 0.071114875
0.14430335 -0.0015304562 -0.017199172 0.04139551 0.059589744 0.0042880536 0.049650285 0.087895095
0.08753733 -0.12848695 -0.04849339 -0.27337205 -0.0644505 -0.092282 -0.032440208 0.054213207
0.14458463 0.083098136 -0.03496963 -0.3652193 0.10844823 -0.5402337 -0.07268224 0.09234527
0.7251244 -0.095697895 0.12856399 -0.15397276 0.116462596 -0.044498585 0.116328456 -0.33854327
-0.15482931 -0.029893199 -0.080016896 0.023177406 0.15237506 -0.027998239 0.09625758 -0.5886399
-0.11892578 -0.014547714 0.0022177487 -0.13734972 -0.026660692 -0.05933953 -0.385292 0.18263793
0.012727316 -0.3159591 -0.077275924 0.14927141 -0.1753666 0.054031022 0.08905369 -0.22706132
-0.053284343 0.24034746 0.11679047 -0.051188108 0.014254495 -0.37334874 -0.38760912 -0.085681245
-0.03022606 0.06586397 -0.08696864 0.05578536 -0.38913375 0.06528413 -0.11653603 0.10691236
0.1582936 -0.14733021 -0.03639816 -0.52581686 -0.03617573 0.031573184 0.1505687 -0.43047842

fc3.bias f4 [3]
00000000: 9aaf 10be 12f7 043d 8c76 eabd
-0.14129487 0.032462187 -0.11448392
