TicTacToe/model/model.pth (torch, 407151 bytes, 10 tensors)

conv1.weight f4 [32, 1, 3, 3]
0.055462368 0.103398725 0.37954074 -0.1990483 -0.4069796 -0.23401949 0.44550765 -0.34836888
0.12660792 0.008933049 0.21966246 -0.33671966 -0.22022767 -0.3177886 0.20915589 -0.11523652
0.12026158 0.08481848 -0.06592387 -0.11975112 -0.11918869 -0.22603828 0.4939966 0.09640114
0.019753153 0.19118902 -0.17271915 -0.0042257644 -0.41286218 0.013752718 -0.13374728 -0.13486567
0.5422829 0.0848439 -0.22982858 0.07852592 0.3419256 -0.2142056 -0.20936522 -0.08925404
-0.04429145 0.10230126 0.32187182 -0.16924019 -0.2991703 0.083142824 -0.12274797 -0.049147986
0.19838417 -0.28195897 -0.050760224 0.34986585 -0.34872445 0.027371498 -0.008937398 -0.3002612
0.2682718 -0.17786507 -0.37540758 0.26729587 0.11026977 -0.29365638 -0.00247808 -0.36263093
0.056540385 -0.2270962 0.13963774 0.31922963 -0.17302825 0.15686621 0.42594385 0.08125319
0.23847681 -0.21669422 -0.08739256 0.4052893 -0.4759527 -0.44870636 0.026488714 -0.17528017
-0.04769486 -0.14094783 0.12532838 0.27106503 -0.2479507 -0.28420195 0.33970773 -0.04920281
0.3719102 -0.34776208 0.01467576 -0.17070542 0.013767642 -0.0023750572 -0.0526931 0.61053294
-0.22925632 -0.40318772 -0.1966776 -0.32011676 0.046221927 0.09962249 0.22892292 -0.30568683
0.15976405 0.074199855 0.1441955 -0.28053212 0.099636145 0.13921456 -0.28979996 0.10299842
-0.3597122 0.20064482 -0.007993578 0.2043275 -0.16110025 0.4389544 0.028049638 -0.15810727
0.00085338444 -0.38036212 -0.040722396 -0.34071538 0.04856794 0.3084719 0.13409217 0.14945774
0.16647471 -0.20728017 0.2834998 -0.2702842 -0.0993193 -0.2344646 0.28951624 -0.096174665
0.47328657 -0.53299725 0.014384699 -0.14201717 0.032857444 0.20009762 -0.39087376 0.09882368
-0.19522431 0.3811559 -0.272359 0.42675707 -0.38831744 -0.12367566 -0.2399449 -0.13697144
0.19898306 -0.10699413 -0.29911432 -0.11951345 -0.29067826 0.36804107 -0.4438852 0.018972483
-0.22126915 -0.0072239726 0.025941256 -0.26485705 -0.28614098 0.05945781 -0.3024285 0.11600835
-0.16142407 -0.4216216 0.34683195 -0.23508109 -0.32642487 -0.26114222 0.2641593 -0.16226652
0.5757894 -0.062161393 0.13058998 -0.11996225 0.08938166 0.081474505 -0.32478058 0.26771075
0.21383876 0.15857878 -0.38033327 -0.14314273 -0.2961207 -0.17708832 -0.3718564 0.2216928
0.2551905 -0.018125197 -0.12330371 -0.38417324 0.3416465 -0.23702653 -0.27896866 -0.15680842
0.26760826 0.40428448 -0.16260238 -0.37150306 -0.22872591 -0.20250782 0.33575144 0.5176283
-0.060924537 -0.12973703 -0.12620626 -0.16962555 -0.15168738 -0.31487778 -0.08164615 0.43616903
0.45795742 -0.32744777 -0.188014 -0.28808248 -0.35895804 0.016236773 -0.09422888 -0.11178657
0.4241384 -0.3281488 0.46579695 -0.18094859 -0.016185366 -0.32474345 -0.026565963 -0.048357192
0.4792813 -0.13417943 0.09831696 -0.19940571 0.37828088 -0.06840692 -0.5177896 -0.122285075
0.37393844 -0.2324723 -0.059687763 -0.01134772 -0.26293314 0.25486594 -0.20367633 0.4559939
0.23013093 -0.22758879 -0.11355004 -0.4612439 0.37950888 0.06411082 -0.5395231 -0.32606095
00000000: 822c 633d b6c2 d33d 2a53 c23e 51d3 4bbe
00000010: a15f d0be cea2 6fbe 9419 e43e 685d b2be
00000020: 82a5 013e ec5b 123c 32ef 603e 8566 acbe
00000030: 5d83 61be 30b5 a2be f62c 563e 2001 ecbd
00000040: b44b f63d 50b5 ad3d 1803 87bd 1340 f5bd
00000050: 3319 f4bd 9476 67be 1fed fc3e f66d c53d
00000060: 5dd1 a13c 0ec7 433e 4add 30be 4878 8abb
00000070: ac62 d3be 1553 613c 0cf5 08be 3a1a 0abe
00000080: 0dd3 0a3f a3c2 ad3d 2f58 6bbe 33d2 a03d
00000090: df10 af3e b658 5bbe d663 56be d2ca b6bd
000000a0: f46a 35bd 5383 d13d 62cc a43e 4d4d 2dbe
000000b0: d92c 99be c946 aa3d 4a63 fbbd 664f 49bd
000000c0: 3825 4b3e ed5c 90be f4e9 4fbd 9e21 b33e
000000d0: 038c b2be 313a e03c 2a6e 12bc d6bb 99be
000000e0: ec5a 893e 4322 36be 6c35 c0be 01db 883e
000000f0: 1ed5 e13d 215a 96be 4967 22bb c3aa b9be
00000100: e496 673d e88b 68be 32fd 0e3e 1172 a33e
00000110: 512e 31be 89a1 203e 5015 da3e 1368 a63d
00000120: 4433 743e 17e5 5dbe dffa b2bd 1482 cf3e
00000130: 13b0 f3be d7bc e5be dcfe d83c a57c 33be
00000140: af5b 43bd a154 10be 1556 003e 09c9 8a3e
00000150: cae6 7dbe eb82 91be 2cee ad3e e388 49bd
00000160: 046b be3e df0d b2be 9972 703c 67cd 2ebe
00000170: ad91 613c d9a6 1bbb b8d4 57bd e34b 1c3f
00000180: 2bc2 6abe 9f6e cebe da65 49be 58e6 a3be
00000190: 3453 3d3d e006 cc3d c56a 6a3e fc82 9cbe
000001a0: 3099 233e 18f6 973d fca7 133e e8a1 8fbe
000001b0: 090e cc3d 438e 0e3e a960 94be d6f0 d23d
000001c0: 332c b8be d675 4d3e 7ff7 02bc 3a3b 513e
000001d0: 77f7 24be a2be e03e 5bc8 e53c dfe6 21be
000001e0: a9b5 5f3a d3be c2be 87cc 26bd 3f72 aebe
000001f0: 2def 463d 07f0 9d3e 754f 093e 730b 193e
00000200: 5978 2a3e 4141 54be e326 913e b162 8abe
00000210: eb67 cbbd 7d17 70be 793b 943e 39f7 c4bd
00000220: 9e52 f23e 8272 08bf cdad 6b3c f36c 11be
00000230: 8795 063d 64e6 4c3e 9b20 c8be 1264 ca3d
00000240: e2e8 47be de26 c33e a472 8bbe e77f da3e
00000250: 8bd1 c6be aa49 fdbd 1eb4 75be 3e42 0cbe
00000260: 37c2 4b3e bd1f dbbd 8325 99be 78c3 f4bd
00000270: c8d3 94be e16f bc3e ec44 e3be 2e6c 9b3c
00000280: 6194 62be 13b7 ecbb c282 d43c 589b 87be
00000290: 1281 92be 088a 733d e9d7 9abe c995 ed3d
000002a0: 5a4c 25be c9de d7be f593 b13e 19b9 70be
000002b0: 2921 a7be 6fb4 85be e33f 873e 3229 26be
000002c0: ef66 133f f29c 7ebd 61b9 053e c5ae f5bd
000002d0: bb0d b73d 1bdc a63d a449 a6be 6211 893e
000002e0: 8cf8 5a3e 7a62 223e 0bbb c2be 0294 12be
000002f0: 229d 97be a456 35be f663 bebe 7003 633e
00000300: 54a8 823e 4b7b 94bc a886 fcbd 5bb2 c4be
00000310: 4aec ae3e 15b7 72be fbd4 8ebe 6392 20be
00000320: f303 893e 60fe ce3e 3d81 26be a635 bebe
00000330: 2037 6abe 365e 4fbe 9de7 ab3e 4a83 043f
00000340: 028c 79bd c9d9 04be 373c 01be 52b2 2dbe
00000350: f053 1bbe a937 a1be 1936 a7bd 8c51 df3e
00000360: 6579 ea3e 3ca7 a7be be86 40be 8c7f 93be
00000370: 59c9 b7be fb02 853c 12fb c0bd 5bf0 e4bd
00000380: ab28 d93e 1f03 a8be f07c ee3e 964a 39be
00000390: 2c97 84bc c644 a6be dda0 d9bc 3112 46bd
000003a0: 5c64 f53e 5566 09be 675a c93d 0331 4cbe
000003b0: 08ae c13e ed18 8cbd dc8d 04bf 9970 fabd
000003c0: dc74 bf3e 380d 6ebe 287b 74bd caeb 39bc
000003d0: 2c9f 86be ca7d 823e 8790 50be 0878 e93e
000003e0: 71a7 6b3e 090d 69be ec8c e8bd 2928 ecbe
000003f0: fd4e c23e 894c 833d 301e 0abf 76f1 a6be

conv1.bias f4 [32]
0.35050473 0.22922683 -0.25471944 -0.024936251 -0.16624174 -0.19476159 -0.009966823 -0.43328026
-0.058439486 -0.33142602 -0.2226716 0.066320784 -0.10245933 -0.14456151 -0.025215471 0.09507791
-0.19587483 -0.09769754 0.13432895 -0.20892061 -0.16526459 0.08652939 0.05423577 -0.09693136
0.21524604 -0.27797294 0.503033 -0.3087451 0.374943 -0.15734386 -0.3395429 -0.3025749
00000000: 5b75 b33e 70ba 6a3e 966a 82be 1c47 ccbc
00000010: 463b 2abe 956f 47be e34b 23bc e9d6 ddbe
00000020: 3e5e 6fbd acb0 a9be 0604 64be 31d3 873d
00000030: 32d6 d1bd ef07 14be ad90 cebc 35b8 c23d
00000040: 6993 48be a615 c8bd 878d 093e 49ef 55be
00000050: 1f3b 29be 5236 b13d 5426 5e3d f383 c6bd
00000060: 7569 5c3e 7852 8ebe c5c6 003f d613 9ebe
00000070: 87f8 bf3e c01e 21be 91d8 adbe 19eb 9abe

conv2.weight f4 [64, 32, 3, 3]
0.2826174 -0.031931818 -0.042474475 -0.11523625 0.32190686 0.12635395 0.17465639 -0.33491233
0.15463807 0.012907057 -0.07605377 -0.24051285 0.307492 0.16914529 0.4499444 0.11138248
0.09285118 -0.14181 -0.24010307 -0.22827308 0.0059000724 -0.08864806 -0.3573543 0.14814323
0.26923788 0.056704834 0.14662158 -0.42454407 0.2064209 -0.3293216 -0.30615634 0.15897655
0.26127473 0.02433982 0.25869352 -0.046806898 0.20284699 -0.19842708 -0.42715383 0.09834192
0.14369059 -0.29831544 0.27443552 -0.2218028 -0.088177495 0.2678675 -0.20972316 0.21040495
-0.22485037 0.12345847 -0.14361927 -0.13538417 0.14584568 0.2047905 0.00862828 0.3566657
0.025953274 -0.16636615 0.14909314 -0.21042088 -0.07236655 -0.0010517044 0.06533084 -0.061158802
-0.53217995 -0.31487706 -0.14022036 -0.3342036 -0.08371349 0.29086238 -0.13501433 0.0655892
0.120926775 0.27353495 0.15330231 -0.15228516 -0.23538041 0.025727661 -0.3435872 0.18098116
0.25191537 -0.20382454 0.02662579 0.00069615076 0.21350221 0.094428286 0.061035533 -0.46125412
-0.082460314 -0.00985057 -0.28583056 0.32800344 0.082834125 -0.121360324 -0.10332828 -0.28782412
-0.22256888 0.15796635 -0.122177355 -0.081194215 -0.04924532 -0.044142425 -0.20684402 0.16933867
-0.32735595 -0.11002774 0.08111147 0.069811866 -0.06989639 0.05054984 0.0568236 0.008352719
0.1868446 0.1348785 0.020723863 0.037317295 -0.14226565 0.0071698907 -0.10076862 -0.23050225
0.20792632 0.38021052 -0.11900836 -0.20343387 0.019024989 0.030465819 -0.0054723574 0.04628306
0.19795711 -0.12066626 0.077407435 0.030990792 0.099102944 -0.15206148 -0.024708841 0.13336624
-0.101793736 0.20832889 0.10527953 -0.07515815 0.015832126 0.1666356 -0.5179648 -0.0369858
-0.02187726 0.19513239 0.14558008 0.28212675 -0.24511279 0.047140878 0.17197399 0.18969621
-0.20563479 0.13013577 -0.21687818 0.17230095 -0.037720244 -0.16141483 0.013769108 0.628895
-0.056725092 0.12941092 0.094278306 0.035504676 0.007828666 0.26822653 0.19176637 0.0024109408
0.17655735 0.01873747 0.1676764 -0.1398376 -0.12811798 -0.26667115 -0.3500612 0.09775629
0.14468952 0.0944012 0.49987036 -0.19449098 0.100723445 -0.06676622 0.20703642 0.10202739
-0.030978559 -0.3015567 -0.06881494 -0.08209472 -0.14098406 -0.31775513 -0.17235515 0.059689753
0.023536779 -0.23685087 -0.031148156 -0.2813383 0.58638453 -0.06490742 -0.17798264 0.23376663
0.13116916 -0.009169546 0.14743592 -0.34787902 -0.26895097 0.30494034 -0.2418278 -0.0061577144
0.14912169 -0.11866573 0.11200101 0.12154595 -0.14556086 -0.18301584 -0.0085763 -0.21402992
-0.069015145 -0.22679353 -0.39242494 0.16612278 0.33503532 0.048258808 -0.16586773 0.01250927
-0.11457991 -0.031791776 -0.14757755 -0.048889212 0.06939786 0.16674653 0.06408558 0.17224559
-0.066348866 -0.05044407 0.34827992 -0.06419379 0.2099651 -0.0748033 0.5664145 -0.07267932
0.21069264 -0.011349656 0.31382364 -0.16594222 -0.076360315 0.4536629 -0.31277096 -0.050691795
-0.28277075 0.0002886998 -0.07440155 0.0396202 0.072458446 0.22286272 -0.07750677 -0.042410444
00000000: 3ab3 903e f0ca 02bd b7f9 2dbd fc00 ecbd
00000010: fad0 a43e ee62 013e 20d9 323e a179 abbe
00000020: 7159 1e3e 1f78 533c 14c2 9bbd 0049 76be
00000030: 976f 9d3e 6c34 2d3e 1d5f e63e 7f1c e43d
00000040: c228 be3d a436 11be 94dd 75be 6bc0 69be
00000050: 6555 c13b 1d8d b5bd 25f7 b6be dcb2 173e
00000060: 8cd9 893e 5443 683d f823 163e d75d d9be
00000070: 0060 533e d79c a8be 86c0 9cbe c0ca 223e
00000080: cdc5 853e 4d64 c73c 7a73 843e 97b8 3fbd
00000090: 1fb7 4f3e 7830 4bbe e8b3 dabe 7d67 c93d
000000a0: a023 133e cdbc 98be d082 8c3e 4620 63be
000000b0: 6796 b4bd ee25 893e abc1 56be 6574 573e
000000c0: 2d3f 66be cbd7 fc3d ee10 13be 26a2 0abe
000000d0: 9258 153e 9ab4 513e a15d 0d3c e39c b63e
000000e0: f69b d43c e35b 2abe dfab 183e 9278 57be
000000f0: ea34 94bd 58d9 89ba 2dcc 853d a781 7abd
00000100: f23c 08bf 9137 a1be ed95 0fbe bc1c abbe
00000110: fa71 abbd eaeb 943e 3241 0abe a153 863d
00000120: 75a8 f73d c60c 8c3e 48fb 1c3e a4f0 1bbe
00000130: 9007 71be d1c2 d23c a9ea afbe 2053 393e
00000140: 0dfb 803e 61b7 50be 541e da3c e37d 363a
00000150: 53a0 5a3e 9e63 c13d 6500 7a3d 8029 ecbe
00000160: f4e0 a8bd 4964 21bc 6258 92be 11f0 a73e
00000170: f0a4 a93d c38b f8bd c79d d3bd af5d 93be
00000180: 19e9 63be eec1 213e 1f38 fabd 2749 a6bd
00000190: 76b5 49bd b0ce 34bd ebce 53be 1e67 2d3e
000001a0: 339b a7be 3956 e1bd c51d a63d 86f9 8e3d
000001b0: d725 8fbd 590d 4f3d ddbf 683d d8d9 083c
000001c0: 3154 3f3e 971d 0a3e 17c5 a93c 05da 183d
000001d0: 16ae 11be 67f1 ea3b c75f cebd c808 6cbe
000001e0: a3ea 543e f4aa c23e a8ba f3bd f850 50be
000001f0: 4bda 9b3c 7493 f93c 7651 b3bb 4e93 3d3d
00000200: 45b5 4a3e df1f f7bd ca87 9e3d 67e0 fd3c
00000210: 7cf6 ca3d 01b6 1bbe 326a cabc 2991 083e
00000220: 3c79 d0bd 2b54 553e cb9c d73d 84ec 99bd
00000230: 60b2 813c 86a2 2a3e 5799 04bf 6c7e 17bd
00000240: f137 b3bc c9d0 473e f212 153e eb72 903e
00000250: d9fe 7abe cb16 413d f319 303e b93f 423e
00000260: ed91 52be 5042 053e 5015 5ebe a96f 303e
00000270: 8b80 1abd ee49 25be d397 613c 43ff 203f
00000280: 9258 68bd 4c84 043e fc14 c13d 5a6d 113d
00000290: ce43 003c fd54 893e 675e 443e e000 1e3b
000002a0: 73cb 343e 537f 993c 5db3 2b3e 9631 0fbe
000002b0: 5c31 03be 1f89 88be 393b b3be 7334 c83d
000002c0: 7d29 143e 6b55 c13d 02ef ff3e a528 47be
000002d0: 1848 ce3d babc 88bd 5b01 543e bcf3 d03d
000002e0: bfc6 fdbc a465 9abe d9ee 8cbd 4721 a8bd
000002f0: 205e 10be cdb0 a2be de7d 30be 3e7d 743d
00000300: 34d0 c03c 0989 72be 6b2a ffbc 930b 90be
00000310: 4c1d 163f 2eee 84bd 1541 36be 8560 6f3e
00000320: 3551 063e dd3b 16bc 71f9 163e 331d b2be
00000330: f1b3 89be 2421 9c3e b5a1 77be a7c6 c9bb
00000340: 5bb3 183e 0507 f3bd c960 e53d 15ed f83d
00000350: e80d 15be 8168 3bbe 9c83 0cbc a92a 5bbe
00000360: d057 8dbd 903c 68be eceb c8be 171c 2a3e
00000370: c089 ab3e 07ab 453d 3bd9 29be aef3 4c3c
00000380: dfa8 eabd 1838 02bd 921e 17be 0e40 48bd
00000390: 7720 8e3d 9abf 2a3e 4d3f 833d 2661 303e
000003a0: eae1 87bd 719e 4ebd bf51 b23e 0978 83bd
000003b0: 1701 573e 7932 99bd 8a00 113f e5d8 94bd
000003c0: d0bf 573e e8f3 39bc 7ead a03e c2ec 29be
000003d0: cc62 9cbd 8146 e83e 8423 a0be 33a2 4fbd
000003e0: 54c7 90be a25c 9739 d75f 98bd ca48 223d
000003f0: 1865 943d 2036 643e dfbb 9ebd 93b6 2dbd

conv2.bias f4 [64]
0.0098916 -0.1980008 -0.34001037 -0.1404434 -0.21567339 -0.18463491 -0.20126307 -0.19542636
-0.12541573 -0.0802519 -0.07139439 -0.10354828 0.11118973 -0.061660416 -0.24357659 -0.07941999
-0.15833826 0.03498514 -0.27379206 -0.12612809 -0.21312504 -0.29858482 -0.15304966 -0.26514462
-0.16243191 -0.101009175 -0.26575446 -0.13291341 -0.06874724 -0.37489846 -0.02892735 -0.1956706
-0.18149492 -0.1832891 -0.42643008 -0.3282193 -0.21257254 -0.22647572 -0.055142377 -0.21098293
-0.23358834 -0.24054939 -0.11646716 -0.3173255 -0.17711124 -0.41398692 -0.2169557 -0.27258494
-0.14144531 -0.23702264 0.16851774 -0.14129111 -0.33402795 -0.24508095 -0.14103979 -0.57247597
-0.2836309 -0.38667977 -0.3283099 -0.10334411 -0.084100425 -0.45887926 -0.1791341 -0.04601577
00000000: 6110 223c b9c0 4abe d715 aebe 65d0 0fbe
00000010: 7cd9 5cbe ef10 3dbe e817 4ebe d91d 48be
00000020: fb6c 00be 1c5b a4bd 3937 92bd 1f11 d4bd
00000030: 71b7 e33d a28f 7cbd 246c 79be f3a6 a2bd
00000040: 6d23 22be 944c 0f3d 792e 8cbe b927 01be
00000050: 733d 5abe 1ce0 98be 0db9 1cbe 09c1 87be
00000060: 8d54 26be e6dd cebd f810 88be 741a 08be
00000070: 5acb 8cbd b1f2 bfbe 0df9 ecbc e05d 48be
00000080: ced9 39be 23b0 3bbe 0b55 dabe 5c0c a8be
00000090: 9eac 59be 40e9 67be f9dc 61bd e90b 58be
000000a0: c831 6fbe 9452 76be 5686 eebd 7d78 a2be
000000b0: a65c 35be 18f6 d3be a329 5ebe 4190 8bbe
000000c0: 0ad7 10be 10b6 72be ea8f 2c3e 9eae 10be
000000d0: b605 abbe 80f6 7abe bc6c 10be c98d 12bf
000000e0: 1238 91be e4fa c5be 3c18 a8be 14a6 d3bd
000000f0: d83c acbd 39f2 eabe ee6e 37be 087b 3cbd

fc1.weight f4 [128, 576]
0.007723583 0.0073889503 0.026515149 -0.06722094 0.008262711 -0.02422609 0.0072230515 0.013936559
-0.031891618 0.036019582 0.023091717 0.024234273 0.016285986 -0.014024895 -0.039066456 0.04339562
0.03196356 0.019864645 -0.015793035 -0.034633026 0.020786997 -0.0068862243 -0.047491215 0.0094423
-0.025964117 -0.021183759 -0.017967835 -0.030889226 -0.044389796 -0.015526386 -0.009417147 0.03498063
0.01849861 0.01970108 -0.013683878 -0.0038210303 0.0047112503 -0.0049909777 -0.018768722 0.018688666
-0.046897188 -0.016044198 -0.031925477 0.0037313972 -0.022201627 -0.047431514 -0.00041082353 -0.010069334
-0.05914921 -0.012483115 -0.019085295 0.005758206 -0.021345256 -0.008579196 -0.01912731 -0.015088558
0.03175922 0.009199113 0.038420815 0.01927853 0.038723096 -0.04226299 0.004223462 -0.02224394
0.011263471 -0.017233077 -0.022953695 5.4505494e-05 0.027327279 0.0016006206 -0.0065003377 -0.038890246
0.023296315 0.026137525 -0.042020388 0.021559153 -0.027443662 -0.03333075 -0.048604507 -0.06766793
-0.011381943 -0.017984962 -0.002614528 -0.020523991 -0.0113225095 -0.012626668 0.009004947 -0.03987234
-0.038443394 -0.033706225 -0.017588515 -0.0070563178 -0.06253252 -0.031023044 -0.044485938 -0.0040701195
-0.047590844 -0.017059073 0.007876656 0.012137711 -0.051651172 -0.0046482976 -0.030405758 -0.06162333
-0.0071360883 0.0011603012 -0.0043868665 -0.02277454 -0.016781662 -0.03582811 -0.06407683 -0.050787725
-0.051608052 -0.010703257 -0.052792415 -0.048184138 0.02621844 0.036221255 -0.035734516 -0.0124802105
-0.06383347 -0.015927304 0.0017410616 -0.09349864 -0.02449127 0.008660244 -0.010662267 -0.013574522
0.009431296 0.026302975 0.01409157 0.012856942 -0.040650494 -0.04291637 -0.007317409 0.009016767
0.03184097 -0.018691527 0.018097822 -0.027060635 -0.014166473 -0.0332607 0.01735999 -0.017397568
0.025607739 0.027822156 -0.03777496 -0.033502914 -0.035312656 0.03554546 -0.022283314 -0.0446437
0.015466357 -0.010711824 -0.02183164 -0.041222837 -2.4439767e-06 0.022117259 -0.035482533 0.030548627
-0.03659643 -0.030374955 -0.054599315 0.0016885845 -0.01811108 -0.04310592 0.0039555877 -0.026851615
-0.0071306312 -0.0014778272 -0.0049069594 0.02267595 0.023025755 -0.010690933 -0.0037501268 -0.030023187
-0.028380927 0.0027506885 0.027307032 0.01902288 -0.02544487 0.006619162 -0.0016297055 -0.037154485
-0.034245104 -0.05318477 -0.042123713 -0.055664986 -0.026787067 0.006093364 0.02080676 -0.03699552
0.0015774629 0.0047667413 0.0329783 -0.05996606 0.026691109 -0.026721533 0.0039639976 0.0030126127
-0.032008898 0.013451534 -0.04853862 0.008091764 -0.0173005 -0.019530656 -0.021458525 -0.03195858
-0.018780133 -0.017196385 0.011239999 0.02711184 -0.046231188 -0.024119936 0.021103328 -0.058486134
-0.009104781 -0.018460872 0.040507574 -0.020496758 0.03323375 0.013928067 0.007499606 0.0005211346
0.000997442 -0.02634515 -0.023511223 -0.016408028 -0.031804718 0.010065633 -0.017106215 -0.06600244
-0.0013980368 0.022062438 0.003005579 -0.024831858 0.004588794 0.012673378 0.030242514 -0.035173863
-0.035403542 -0.01996211 -0.002064939 -0.015048484 -0.019203817 0.019732758 -0.055986032 -0.009249873
-0.027904894 -0.0139734335 0.022831652 -0.029459314 -0.03276629 0.017248362 0.034224067 -0.0014014355
00000000: 1c16 fd3b 021f f23b 4c36 d93c 22ab 89bd
00000010: 5260 073c cb75 c6bc 59af ec3b 2a56 643c
00000020: c9a0 02bd 4589 133d d72a bd3c f486 c63c
00000030: 306a 853c acc8 65bc 2604 20bd 9bbf 313d
00000040: 39ec 023d 2ebb a23c 6560 81bc 5cdb 0dbd
00000050: 7e49 aa3c d6a5 e1bb 2686 42bd e0b3 1a3c
00000060: b3b2 d4bc 9089 adbc 4831 93bc 670b fdbc
00000070: 13d2 35bd 6262 7ebc 614a 1abc d947 0f3d
00000080: 668a 973c 2964 a13c 5832 60bc 406a 7abb
00000090: d560 9a3b 5b8b a3bb ddc0 99bc f918 993c
000000a0: 4417 40bd 1f6f 83bc 4ac4 02bd 758a 743b
000000b0: 30e0 b5bc 8c47 42bd cd63 d7b9 d9f9 24bc
000000c0: 7146 72bd fb85 4cbc c458 9cbc 55af bc3b
000000d0: 3fdc aebc c28f 0cbc e0b0 9cbc 0036 77bc
000000e0: f515 023d e0b7 163c 255f 1d3d 02ee 9d3c
000000f0: 1c9c 1e3d f51b 2dbd f864 8a3b ec38 b6bc
00000100: 6c8a 383c 622c 8dbc 6309 bcbc d49c 6438
00000110: 75dd df3c eacb d13a c900 d5bb 614b 1fbd
00000120: ead7 be3c 5d1e d63c 921d 2cbd d29c b03c
00000130: 88d1 e0bc d385 08bd 8515 47bd 7c95 8abd
00000140: 547b 3abc 3355 93bc 8058 2bbb ee21 a8bc
00000150: 0c82 39bc 16e0 4ebc 7c89 133c 2e51 23bd
00000160: d276 1dbd 8a0f 0abd ca15 90bc af38 e7bb
00000170: 0d11 80bd 0a24 febc e336 36bd a35e 85bb
00000180: 9eee 42bd 78bf 8bbc 170d 013c 40dd 463c
00000190: 2e90 53bd bf50 98bb 7f15 f9bc bf68 7cbd
000001a0: d9d5 e9bb 3f15 983a b4bf 8fbb ac91 babc
000001b0: b279 89bc 7fc0 12bd b73a 83bd ca06 50bd
000001c0: f762 53bd b75c 2fbc dc3c 58bd bb5c 45bd
000001d0: 0ec8 d63c bd5c 143d 5b5e 12bd cc79 4cbc
000001e0: 1fbb 82bd fa79 82bc 5534 e43a 377c bfbd
000001f0: eaa1 c8bc b2e3 0d3c cab0 2ebc ac67 5ebc
00000200: b985 1a3c 5679 d73c 54e0 663c eca5 523c
00000210: 2281 26bd 13c9 2fbd e0c6 efbb 10bb 133c
00000220: ad6b 023d f91e 99bc e241 943c 44ae ddbc
00000230: 7f1a 68bc 5f3c 08bd 8a36 8e3c 5885 8ebc
00000240: 52c7 d13c 4aeb e33c ebb9 1abd 5a3a 09bd
00000250: 01a4 10bd 1e98 113d 7f8b b6bc 50dc 36bd
00000260: 9a66 7d3c a580 2fbc 44d8 b2bc 47d9 28bd
00000270: 3303 24b6 412f b53c 2256 11bd 1d41 fa3c
00000280: 23e6 15bd e6d4 f8bc 88a3 5fbd 7e53 dd3a
00000290: b05d 94bc d58f 30bd e09d 813b ebf7 dbbc
000002a0: 12a8 e9bb a7b3 c1ba 8fca a0bb eac2 b93c
000002b0: 82a0 bc3c 0629 2fbc b0c4 75bb 30f3 f5bc
000002c0: 1e7f e8bc e544 343b ffb2 df3c dfd5 9b3c
000002d0: c371 d0bc 8ee5 d83b d89b d5ba 4d2f 18bd
000002e0: 9844 0cbd 46d8 59bd ea89 2cbd f800 64bd
000002f0: 8d70 dbbc d8aa c73b f072 aa3c 9d88 17bd
00000300: dfc2 ce3a 5332 9c3b 4114 073d f99e 75bd
00000310: 50a7 da3c 1ee7 dabc 6ce4 813b 416f 453b
00000320: c31b 03bd d363 5c3c 6fd0 46bd 5193 043c
00000330: c7b9 8dbc c1fe 9fbc cac9 afbc 00e7 02bd
00000340: cbd8 99bc 6fdf 8cbc f927 383c a619 de3c
00000350: ea5c 3dbd 2c97 c5bc e3e0 ac3c 288f 6fbd
00000360: 382c 15bc 413b 97bc 45eb 253d d1e8 a7bc
00000370: 1d20 083d 8c32 643c 41bf f53b c09c 083a
00000380: 9abc 823a c9d1 d7bc 9c9a c0bc 216a 86bc
00000390: aa45 02bd 53ea 243c 5522 8cbc 4a2c 87bd
000003a0: 553e b7ba 49bc b43c 40f9 443b 2e6c cbbc
000003b0: 985d 963b 00a4 4f3c 26bf f73c 7812 10bd
000003c0: 4e03 11bd 9487 a3bc ed53 07bb eb8d 76bc
000003d0: 5351 9dbc 98a6 a13c 9c51 65bd c88c 17bc
000003e0: ce98 e4bc d4f0 64bc 7209 bb3c a954 f1bc
000003f0: f235 06bd 704c 8d3c 892e 0c3d 5fb0 b7ba

fc1.bias f4 [128]
-0.024834279 -0.07937612 -0.07949091 -0.19866231 0.088118345 -0.0031159883 0.033797022 -0.43295115
-0.55223596 -0.15954322 -0.17516668 -0.38574514 -0.025805118 0.0014172276 -0.0842901 -0.22460245
0.22980912 -0.38294652 -0.022390366 0.090449326 -0.091902465 0.1984788 -0.29640105 -0.4512213
-0.4665985 0.003961084 -0.024188295 -0.032696165 -0.032878302 -0.32447508 -0.015512855 -0.39649606
-0.05187532 -0.32694244 0.14563783 -0.1990933 -0.026822263 -0.3186214 -0.050846618 -0.075137384
0.05141571 0.2109276 -0.39079025 0.117832065 -0.061769508 -0.08853409 -0.051319487 -0.01858898
-0.28261134 -0.078912385 -0.2612806 -0.019919287 -0.17373377 -0.53938043 -0.16040948 -0.16302072
-0.017345956 -0.18809691 -0.34377328 -0.051579483 -0.063963294 -0.01856109 -0.0738799 -0.014918353
-0.4090273 -0.41304213 -0.47142047 -0.07843224 -0.103527695 0.31772733 -0.011924042 -0.39441714
-0.03859551 -0.015603129 -0.34431943 -0.23820627 0.0034391296 -0.06034124 0.2936029 -0.030656926
-0.05010539 0.010690982 -0.21806645 0.001305238 -0.1593325 0.090055466 -0.26889852 -0.055593733
-0.17577343 0.08980751 -0.13620862 -0.20054811 0.2367571 -0.00985996 -0.034317598 -0.03185932
-0.053973585 -0.047977347 -0.07461774 -0.19636697 -0.043637943 -0.16881746 -0.12496129 -0.025147548
-0.20098706 -0.06745064 -0.4907269 0.20660111 -0.018925123 -0.33560917 -0.042159017 -0.17345539
-0.2091439 -0.14033037 -0.31079647 -0.014596321 -0.30541188 -0.36219698 0.29864255 0.032094356
0.17684697 -0.3179679 -0.24438235 -0.43956438 0.18953079 -0.5001688 -0.18022658 -0.18409963
00000000: 4271 cbbc f28f a2bd 21cc a2bd 226e 4bbe
00000010: 6477 b43d 9c35 4cbb bf6e 0a3d c6ab ddbe
00000020: 565f 0dbf 4c5f 23be e55e 33be 6380 c5be
00000030: 4165 d3bc 44c2 b93a 4aa0 acbd 2ffe 65be
00000040: 1553 6b3e 9111 c4be 006c b7bc 7f3d b93d
00000050: 5c37 bcbd 073e 4b3e e1c1 97be 7a06 e7be
00000060: 00e6 eebe fbcb 813b 8826 c6bc 6aec 05bd
00000070: 66ab 06bd 9921 a6be a129 7ebc 8801 cbbe
00000080: 377b 54bd 0065 a7be 1522 153e 1ddf 4bbe
00000090: 5dba dbbc 5822 a3be 8b44 50bd a1e1 99bd
000000a0: 4899 523d 68fd 573e a915 c8be f051 f13d
000000b0: 0602 7dbd 5c51 b5bd 6234 52bd eb47 98bc
000000c0: 6fb2 90be d19c a1bd 92c6 85be c62d a3bc
000000d0: 44e7 31be d614 0abf 6242 24be e7ee 26be
000000e0: 1b19 8ebc 7a9c 40be 0d03 b0be 0245 53bd
000000f0: 30ff 82bd 6d0d 98bc 584e 97bd 1c6c 74bc
00000100: 076c d1be 427a d3be 065e f1be 15a1 a0bd
00000110: 5406 d4bd 28ad a23e 0f5d 43bc 0bf1 c9be
00000120: 5316 1ebd 44a4 7fbc a34a b0be 58ec 73be
00000130: 0563 613b 6028 77bd 1f53 963e 3c24 fbbc
00000140: 4f3b 4dbd 3b29 2f3c d04c 5fbe 8514 ab3a
00000150: 0f28 23be 006f b83d 11ad 89be 41b6 63bd
00000160: f3fd 33be 00ed b73d 467a 0bbe 7c5c 4dbe
00000170: 7470 723e ab8b 21bc 9c90 0cbd eb7e 02bd
00000180: 6813 5dbd e583 44bd 30d1 98bd 6c14 49be
00000190: b3bd 32bd 7cde 2cbe b4eb ffbd 3b02 cebc
000001a0: 8dcf 4dbe 9023 8abd 8e40 fbbe 3e8f 533e
000001b0: dc08 9bbc f7d4 abbe efae 2cbd 4a9e 31be
000001c0: d229 56be c4b2 0fbe b720 9fbe 6825 6fbc
000001d0: f25e 9cbe e271 b9be ade7 983e 5f75 033d
000001e0: 5f17 353e b0cc a2be 5e3f 7abe 950e e1be
000001f0: 5c14 423e 100b 00bf 518d 38be 9d84 3cbe

fc2.weight f4 [64, 128]
0.00807438 0.04789994 -0.017301165 -0.035858285 0.04443315 -0.076542854 -0.042141836 -0.026013024
0.034128882 -0.012381889 -0.04466469 -0.072240025 -0.06785489 0.054624416 0.044988953 -0.10350893
-0.009486682 -0.08267363 -0.02032578 -0.058130957 0.08186563 -0.087401636 -0.008148867 -0.023100771
0.07116393 -0.043765455 -0.07621103 -0.05092986 -0.021064311 -0.0498097 -0.0197929 -0.0062966123
-0.0044024587 -0.052906506 -0.11729352 0.079076685 0.049482353 -0.040917825 0.057726167 0.04821276
-0.059219748 -0.098072246 -0.0002473087 -0.023973739 0.056688808 -0.028491616 -0.058498308 -0.06671111
-0.04106029 -0.011733882 -0.0582677 0.022596925 0.06395293 -0.07905537 0.06442822 -0.010745667
0.023164526 -0.03250939 0.007705055 -0.07748261 0.04826533 0.048912667 0.054254137 -0.041610066
0.01775144 0.07464545 -0.025535613 0.038442962 -0.030232988 0.018550353 -0.030526266 0.070324294
0.029577702 -0.011257574 -0.017489754 -0.041732546 -0.045395516 0.086174734 -0.025239967 -0.033832833
-0.00703568 -0.06632602 -0.051418483 -0.115243606 0.04274205 0.040318914 0.036955982 -0.06954099
-0.06552094 -0.023917094 0.078668274 0.018102074 -0.11469706 0.06910703 -0.058931008 -0.07143319
-0.09611536 0.035365112 -0.021499626 -0.07382858 0.05753111 0.043653272 0.023742676 -0.07846364
-0.05508926 0.06588251 -0.0069673285 -0.11267826 -0.00055567 0.0054772794 0.025779344 -0.01558958
-0.029927928 -0.09099588 -0.07543782 -0.020675048 -0.001735989 -0.04985317 -0.08282429 0.029644795
0.00628751 0.0027372688 -0.052226637 0.03068304 0.018401742 0.07234899 -0.045274764 -0.05870186
0.061157674 -0.020217989 0.015139265 0.22107315 0.03831986 0.08930591 -0.031164574 -0.12597105
-0.050835706 0.33909315 -0.05646481 0.10554636 0.031104717 -0.24576764 -0.0050915894 0.021658884
-0.0057069166 0.124187656 0.024654128 -0.31543878 0.14649548 0.045983184 0.1694365 -0.067682676
-0.00606838 0.085501 -0.2884587 0.14342138 0.011672409 0.13797735 0.0006046678 0.25606352
-0.050145477 -0.025772499 -0.009532213 -0.08867275 0.04084392 0.04666934 0.064043626 0.03401178
-0.25489962 -0.13256943 -0.09264846 -0.10636619 0.038091116 0.037077576 0.05938742 -0.37710005
-0.12986827 0.04571619 0.104995966 -0.05751844 -0.09038089 0.18119158 -0.14068617 0.10012157
-0.0650359 -0.100960344 -0.09799973 -0.030370155 -0.03978275 0.012838059 -0.08107175 -0.028849412
0.010405474 -0.061738685 0.083038166 0.04144729 0.09152423 -0.10687116 0.008285844 -0.10193362
0.015571943 0.08576197 0.20406964 0.3649766 0.12093007 0.08613107 0.026718382 0.051588222
-0.054861672 -0.004314795 0.13239978 -0.048231546 0.04147595 0.20223255 -0.08760797 0.013983308
-0.13689598 0.27996895 -0.03775566 0.23287496 -0.00260817 -0.0971387 -0.4394156 0.18722776
-0.094036944 0.031534806 0.06530662 -0.0051669674 -0.0017583221 -0.01106289 0.053734757 0.072605886
0.011965352 0.0001380666 0.10481069 0.008769772 -0.08106893 0.10716044 -0.06594525 -0.0743727
0.054976854 -0.31406257 -0.042737897 0.059139576 -0.049914435 0.065272495 0.06888985 -0.32613024
0.02053165 0.010302024 -0.049557883 0.02075107 0.04411367 0.116631284 0.023005823 0.22613047
00000000: 684a 043c ba32 443d 2cbb 8dbc 23e0 12bd
00000010: 89ff 353d 80c2 9cbd eb9c 2cbd 4419 d5bc
00000020: baca 0b3d 68dd 4abc 52f2 36bd 94f2 93bd
00000030: 81f7 8abd dabd 5f3d 5646 383d 7dfc d3bd
00000040: 076e 1bbc cb50 a9bd 4082 a6bc ba1a 6ebd
00000050: 2ba9 a73d a1ff b2bd d382 05bc d43d bdbc
00000060: 65be 913d 6843 33bd 8714 9cbd d49b 50bd
00000070: 108f acbc 4205 4cbd b824 a2bc d053 cebb
00000080: 8042 90bb 7eb4 58bd 9637 f0bd f5f2 a13d
00000090: 02ae 4a3d 7399 27bd 4672 6c3d be7a 453d
000000a0: 6890 72bd 1ada c8bd 36a9 81b9 9364 c4bc
000000b0: 8632 683d 4067 e9bc ec9b 6fbd d69f 88bd
000000c0: d62e 28bd 783f 40bc 1daa 6ebd 301d b93c
000000d0: c1f9 823d c8e7 a1bd f1f2 833d 980e 30bc
000000e0: 88c3 bd3c 9128 05bd b07a fc3b 34af 9ebd
000000f0: deb1 453d a658 483d 9639 5e3d 516f 2abd
00000100: 786b 913c b7df 983d 1030 d1bc 5e76 1d3d
00000110: 2cab f7bc e9f6 973c 3812 fabc 2f06 903d
00000120: f04c f23c b071 38bc ac46 8fbc bfef 2abd
00000130: a6f0 39bd 617c b03d 0cc4 cebc 4c94 0abd
00000140: 908b e6bb f0d5 87bd 309c 52bd d704 ecbd
00000150: 4a12 2f3d 7225 253d 285f 173d 826b 8ebd
00000160: d82f 86bd c8ed c3bc d51c a13d cd4a 943c
00000170: 4be6 eabd fd87 8d3d a461 71bd 904b 92bd
00000180: 21d8 c4bd 02db 103d fc1f b0bc 7033 97bd
00000190: bea5 6b3d c6cd 323d 0080 c23c 8bb1 a0bd
000001a0: 47a5 61bd 69ed 863d 304e e4bb dcc3 e6bd
000001b0: 62aa 11ba c07a b33b 342f d33c 706b 7fbc
000001c0: 6a2b f5bc 0c5c babd 257f 9abd b85e a9bc
000001d0: 208a e3ba d632 4cbd c89f a9bd a4d9 f23c
000001e0: 7507 ce3b c063 333b 99eb 55bd 005b fb3c
000001f0: 40bf 963c b52b 943d 0872 39bd 5d71 70bd
00000200: 7880 7a3d 32a0 a5bc ae0a 783c 0061 623e
00000210: 49f5 1c3d 04e6 b63d d94c ffbc 8efe 00be
00000220: 1a39 50bd 9e9d ad3e a547 67bd b128 d83d
00000230: 52cf fe3c 83aa 7bbe 59d7 a6bb f96d b13c
00000240: 1601 bbbb 1956 fe3d 74f7 c93c 3181 a1be
00000250: e902 163e dd58 3c3d c380 2d3e 379d 8abd
00000260: 43d9 c6bb 261b af3d dcb0 93be 0edd 123e
00000270: a23d 3f3c ef49 0d3e 9282 1e3a c21a 833e
00000280: 5865 4dbd d920 d3bc 002d 1cbc 0f9a b5bd
00000290: f44b 273d 5a28 3f3d 4e29 833d f04f 0b3d
000002a0: 3482 82be 48c0 07be 7abe bdbd 84d6 d9bd
000002b0: 6e05 1c3d a8de 173d 3940 733d 4213 c1be
000002c0: 30fc 04be e640 3b3d 2008 d73d 7598 6bbd
000002d0: 9e19 b9bd 498a 393e 0910 10be 8a0c cd3d
000002e0: 8b31 85bd 4cc4 cebd 15b4 c8bd d5ca f8bc
000002f0: 3df3 22bd b956 523c f208 a6bd 9a55 ecbc
00000300: b97b 2a3c b4e1 7cbd ea0f aa3d a2c4 293d
00000310: 0e71 bb3d 44df dabd 59c1 073c 93c2 d0bd
00000320: 7621 7f3c f9a3 af3d a2f7 503e 37de ba3e
00000330: 2faa f73d 7d65 b03d 82e0 da3c 2c4e 533d
00000340: a2b6 60bd 2063 8dbb cf93 073e 718e 45bd
00000350: b0e2 293d 0d16 4f3e cf6b b3bd 3f1a 653c
00000360: 762e 0cbe 1758 8f3e aea5 1abd c676 6e3e
00000370: d5ed 2abb a8f0 c6bd 15fb e0be a2b8 3f3e
00000380: 7196 c0bd a42a 013d 7abf 853d aa4f a9bb
00000390: 8077 e6ba 2041 35bc fa18 5c3d 65b2 943d
000003a0: 530a 443c f9c5 1039 fda6 d63d 17af 0f3c
000003b0: 7807 a6bd ef76 db3d 4e0e 87bd b750 98bd
000003c0: 692f 613d cfcc a0be ef0d 2fbd 573c 723d
000003d0: 1473 4cbd 96ad 853d 1f16 8d3d 8bfa a6be
000003e0: fe31 a83c d2c9 283c 35fd 4abd 26fe a93c
000003f0: 89b0 343d 62dc ee3d b576 bc3c bf8e 673e

fc2.bias f4 [64]
-0.05379769 -0.24035436 -0.2394288 0.032141592 -0.2797577 -0.027572554 0.0069272863 -0.1073952
0.09983563 -0.11157527 -0.26875824 -0.21010822 -0.0059073535 -0.03943088 -0.054805096 -0.07287002
-0.20447801 -0.16027384 -0.10901399 0.052482843 -0.13543648 -0.06592899 -0.094867215 0.038131543
0.12626134 -0.14218424 -0.1659207 -0.19658923 -0.16115409 -0.10352767 -0.22095898 -0.061084528
0.0039866436 -0.058533527 -0.18631619 -0.24039121 0.015443035 -0.12409084 0.1996799 0.0012916243
-0.108451664 -0.13913368 -0.033050414 -0.0020051415 0.0065613473 -0.13085952 0.13077603 -0.014668382
-0.024652552 -0.059528593 0.19226897 -0.051971145 -0.27077392 -0.018679108 0.015833301 -0.39609474
-0.12673277 -0.07810836 -0.030195834 0.08604418 0.08257883 0.15138653 0.16007966 -0.18764386
00000000: f75a 5cbd 741f 76be d32c 75be e7a6 033d
00000010: 673c 8fbe d6df e1bc 4afe e23b 04f2 dbbd
00000020: 9f76 cc3d 9381 e4bd ae9a 89be 9c26 57be
00000030: 7992 c1bb 4682 21bd 4f7b 60bd e13c 95bd
00000040: af62 51be d31e 24be ba42 dfbd 40f8 563d
00000050: dcaf 0abe c705 87bd be49 c2bd d22f 1c3d
00000060: a74a 013e bf98 11be 1ee7 29be b04e 49be
00000070: 9405 25be 5106 d4bd 1243 62be c533 7abd
00000080: 64a2 823b dac0 6fbd acc9 3ebe 1d29 76be
00000090: c904 7d3c 5723 febd e378 4c3e b84b a93a
000000a0: e81b debd 0f79 0ebe df5f 07bd b168 03bb
000000b0: 9200 d73b 0a00 06be 27ea 053e a753 70bc
000000c0: 26f4 c9bc 41d4 73bd 28e2 443e b2df 54bd
000000d0: e1a2 8abe ee04 99bc d7b4 813c eecc cabe
000000e0: 3cc6 01be 47f7 9fbd 415d f7bc ee37 b03d
000000f0: 171f a93d 1205 1b3e eceb 233e b625 40be

fc3.weight f4 [3, 64]
0.069702245 -0.16174671 -0.1282097 -0.2286847 -0.10250261 -0.60784984 -0.29337713 -0.05565041
-0.68515724 -0.1837155 -0.08672837 0.31059566 0.12140485 -0.0928513 -0.2900145 0.025588175
-0.58025074 -0.30913845 0.0059634587 -0.28518173 -0.287334 -0.32820132 -0.1451918 -0.48870263
-0.25876284 -0.040554635 -0.19045179 -0.43452883 -0.39058524 -0.0077407327 -1.3845187 -0.041218005
-0.15977871 -0.054627392 0.23983496 0.042464837 -0.25760543 0.012038194 0.13252714 -0.03809927
-0.27085006 0.19022588 -0.45077196 0.030881824 -0.4597052 0.0073382026 -0.43625686 -0.013429681
-0.5426157 0.03142062 0.22700253 -0.6672266 -0.32566273 -0.24292198 -0.029394727 -0.48895645
0.05087081 0.03835862 0.14803143 -0.37043843 0.13923898 -0.39040402 -0.6193344 0.019173542
-0.027434101 0.06304468 -0.09121358 -0.092379026 -0.059816804 -0.0507235 -0.025017757 -0.06340215
-0.058862776 0.06619587 0.044162184 -0.22217238 0.2053705 -0.12699118 0.069073476 -0.089934215
-0.017690727 -0.09107029 -0.048820112 0.02391953 -0.1215314 0.005700398 0.010135585 0.044505678
-0.0029500471 -0.061842266 -0.01220942 0.04411675 -0.066177234 0.028917743 -0.116024226 0.014248699
-0.026717119 -0.04611176 -0.22074434 -0.09214627 -0.0037650177 0.048253592 0.04505633 -0.03455114
-0.04313473 0.0069304975 -0.1610806 -0.027602244 0.0096404 -0.015084739 -0.010007317 -0.15909788
0.10971848 0.058139283 0.1685404 -0.12132805 -0.14215155 -0.047063187 -0.07587076 0.010148564
0.0018366891 -0.08519183 -0.16379835 -0.01145302 0.0057946546 0.111338764 -0.20453216 -0.16716383
-0.028349565 -0.04467571 -0.05924938 -0.027357979 -0.10266379 0.08600551 0.0018159238 -0.07994195
0.009710307 -0.061169975 -0.15855055 -0.66431075 -0.6150243 -0.12698454 -0.07729587 -0.0829263
-0.05378778 0.06517218 -0.09522296 -0.051738378 -0.13296342 -0.025607798 0.07406898 0.107567064
0.040487416 -0.04789992 -0.03202696 0.038663946 -0.099234544 0.01803781 -0.0008569875 0.024626363
-0.0019147568 -0.060075663 -0.70693976 -0.4253628 -0.0010758637 0.023973761 -0.91104466 0.014457932
-0.22444306 -0.4980176 0.1420779 -0.062468376 -0.042848427 -0.17798162 -0.025888281 0.009594972
-0.19145864 -0.16579545 -0.9177516 0.16231121 -0.06499323 -0.044725962 0.0073193475 0.06614305
-0.047742438 -0.39939228 0.094192795 -0.13040198 -0.8224009 0.08442654 0.08806469 -0.26272535
00000000: 0dc0 8e3d eea0 25be 6749 03be 522c 6abe
00000010: e3ec d1bd 0c9c 1bbf 8735 96be aff1 63bd
00000020: 7766 2fbf eb1f 3cbe a59e b1bd 6506 9f3e
00000030: 1ba3 f83d d328 bebd c87c 94be 4b9e d13c
00000040: 508b 14bf 6547 9ebe 1e69 c33b 5703 92be
00000050: 711d 93be 010a a8be 29ad 14be 3b37 fabe
00000060: 907c 84be 9e1c 26bd cb05 43be 907a debe
00000070: cafa c7be f9a5 fdbb e937 b1bf 36d4 28bd
00000080: 089d 23be f9c0 5fbd 4c97 753e 9cef 2d3d
00000090: dce4 83be d83b 453c 32b5 073e fb0d 1cbd
000000a0: dcac 8abe 93ca 423e 95cb e6be e1fb fc3c
000000b0: 7b5e ebbe 4e75 f03b 0f5d dfbe 2a08 5cbc
000000c0: dde8 0abf e8b2 003d 5a73 683e 5dcf 2abf
000000d0: 44bd a6be 8ac0 78be 36cd f0bc 8058 fabe
000000e0: e95d 503d ee1d 1d3d 8d95 173e 1baa bdbe
000000f0: aa94 0e3e 09e3 c7be b38c 1ebf d511 9d3c
00000100: 7bbd e0bc 921d 813d 2fce babd 3731 bdbd
00000110: 7702 75bd 72c3 4fbd 0af2 ccbc fdd8 81bd
00000120: 181a 71bd b391 873d 68e3 343d 2881 63be
00000130: a54c 523e fa09 02be 6576 8d3d 6e2f b8bd
00000140: 25ec 90bc 0f83 babd 99f7 47bd e4f2 c33c
00000150: 74e5 f8bd 67ca ba3b ba0f 263c 964b 363d
00000160: 9455 41bb 514e 7dbd 050a 48bc c4b3 343d
00000170: ee87 87bd e7e4 ec3c 1c9e edbd 6073 693c
00000180: dcdd dabc afdf 3cbd ce0a 62be 2fb7 bcbd
00000190: 84be 76bb 8fa5 453d fc8c 383d 7f85 0dbd
000001a0: 0bae 30bd 3a19 e33b 50f2 24be 1a1e e2bc
000001b0: c5f2 1d3c fb25 77bc bbf5 23bc 8eea 22be
000001c0: 15b4 e03d 7523 6e3d db95 2c3e d77a f8bd
000001d0: 2d90 11be 54c5 40bd 2162 9bbd 2a46 263c
000001e0: 0fbd f03a 0e79 aebd c1ba 27be 73a5 3bbc
000001f0: 16e1 bd3b 9405 e43d e170 51be ff2c 2bbe
00000200: 593d e8bc e1fd 36bd 7aaf 72bd d71d e0bc
00000210: 6541 d2bd a823 b03d 4b04 ee3a 9bb8 a3bd
00000220: fb17 1f3c 5e8d 7abd 135b 22be 4510 2abf
00000230: 3c72 1dbf 3c08 02be 4c4d 9ebd 44d5 a9bd
00000240: 9350 5cbd fe78 853d 4104 c3bd 9feb 53bd
00000250: 9027 08be 72c7 d1bc 7ab1 973d 1f4c dc3d
00000260: 22d6 253d b532 44bd b42e 03bd 165e 1e3d
00000270: 7b3b cbbd 08c4 933c 75a7 60ba 3abd c93c
00000280: 94f8 faba e611 76bd 01fa 34bf 27c9 d9be
00000290: ff03 8dba 9f64 c43c 393a 69bf f6e0 6c3c
000002a0: 67d4 65be 2afc febe de7c 113e d7de 7fbd
000002b0: d581 2fbd d040 36be a913 d4bc 3b34 1d3c
000002c0: bc0d 44be 48c6 29be c5f1 6abf e934 263e
000002d0: 2c1b 85bd 9232 37bd 23d7 ef3b 0276 873d
000002e0: 938d 43bd 257d ccbe 27e8 c03d 1988 05be
000002f0: de88 52bf d2e7 ac3d 435b b43d f083 86be

fc3.bias f4 [3]
-0.14227243 -0.018538874 0.15367565
00000000: ddaf 11be d6de 97bc 265d 1d3e
