TicTacToe/model/model.pth (torch, 275719 bytes, 6 tensors)

lstm.weight_ih_l0 f4 [512, 3]
0	0x3e0a732e	0.135205
1	0x3ed9c5ef	0.42533824
2	0x3e596d72	0.21233156
3	0xbe894f27	-0.268182
4	0xbe49a3c3	-0.19691376
5	0xbeb2ff26	-0.34960288
6	0x3eb2da6b	0.34932265
7	0xbe616bc7	-0.2201377
8	0x3ea2bdc0	0.31785393
9	0xbea2cb88	-0.31795907
10	0xbe2a379e	-0.16622779
11	0xbea7cd0a	-0.3277362
12	0x3c86e1d0	0.016465098
13	0x3ecb46ad	0.3970236
14	0x3eada52f	0.33915088
15	0xbeaae719	-0.3337944
16	0xbdef2a28	-0.116779625
17	0xbef329fd	-0.47492972
18	0xbe46d70f	-0.19417976
19	0xbea3152d	-0.31852093
20	0xbdc524fc	-0.09626195
21	0x3cd8c31d	0.026460225
22	0xbef2ec32	-0.47445828
23	0x3e171cfc	0.1475715
24	0xbea0888d	-0.3135418
25	0xbe12f58b	-0.1435148
26	0xbf2500e4	-0.64454484
27	0xbed6cddb	-0.4195393
28	0xbdfe496a	-0.12416346
29	0xbe977edf	-0.29588982
30	0x3d8525b7	0.06501334
31	0x3e979129	0.29602936
32	0x3ee87661	0.45402816
33	0x3ea7a154	0.3274027
34	0xbe49a933	-0.1969345
35	0x3ea91569	0.33024147
36	0xbd5fc2a6	-0.05462899
37	0xbe1344bc	-0.14381689
38	0xbe081e33	-0.1329277
39	0xbdfa8fd5	-0.12234465
40	0x3c24038f	0.010010614
41	0xbe380358	-0.17970026
42	0xbdf88b7d	-0.1213598
43	0xbc86fc44	-0.016477711
44	0xbebab03d	-0.36462584
45	0xbe71593c	-0.23569196
46	0xbe818246	-0.25294703
47	0xbd0bab50	-0.034098923
48	0x3d941279	0.07230086
49	0x3e8aae98	0.2708633
50	0x3e8918cb	0.26776728
51	0xbe954b1a	-0.2915886
52	0xbe19f9e8	-0.15036738
53	0xbeb0707e	-0.34460825
54	0xbe7c9908	-0.24667752
55	0x3e791c44	0.24327189
56	0xbe142d50	-0.1447041
57	0xbe5d2e4d	-0.21599694
58	0xbe78bb14	-0.24290115
59	0xbe681870	-0.22665572
60	0x3d4513b2	0.048114486
61	0xbe255d4b	-0.1614887
62	0xbf3ccc98	-0.73749685
63	0x3e6b4037	0.22973715
64	0x3e04f89e	0.12985465
65	0x3cd0222d	0.025406921
66	0xbe68311e	-0.22674987
67	0xbe2c4b86	-0.16825685
68	0xbeae8d71	-0.34092286
69	0x3e8706c3	0.26372346
70	0xbe2627e7	-0.16226159
71	0xbe1f68de	-0.15567347
72	0xbba07dce	-0.0048978096
73	0x3eabf711	0.33586934
74	0x3d4acdb1	0.04951257
75	0xbe828ce7	-0.25498125
76	0xbe0987fc	-0.1343078
77	0xbe337693	-0.17525701
78	0x3f049804	0.5179446
79	0xbe8992ee	-0.2686991
80	0xbecae4ec	-0.3962778
81	0x3ec15d11	0.37766317
82	0xbf03ff62	-0.5156156
83	0x3d79c940	0.060982943
84	0xbe6f6a63	-0.23380427
85	0xbe7765ec	-0.24159974
86	0xbe9ce6ea	-0.30644923
87	0xbeadb438	-0.33926558
88	0xbe29b526	-0.16573009
89	0xbeb9ee27	-0.36314508
90	0xbe245849	-0.16049303
91	0xbe80ba84	-0.251423
92	0xbe5564ce	-0.20839235
93	0x3edc309b	0.43005833
94	0x3e18543e	0.14875886
95	0x3ec9e339	0.3943117
96	0xbe8c1f1b	-0.27367482
97	0xbec1b203	-0.37831125
98	0xbee4efb9	-0.44714144
99	0x3d4dbc9d	0.050228704
100	0xbe25a3b2	-0.16175726
101	0x3ebac821	0.3648081
102	0xbdd3a58d	-0.10334311
103	0x3e15a49c	0.14613575
104	0x3ea2e3ea	0.3181451
105	0xbeba3969	-0.36371925
106	0xbe650541	-0.22365285
107	0xbe954077	-0.29150745
108	0x3ddf2634	0.108959585
109	0x3d5b42b0	0.053530395
110	0x3f07114b	0.5276076
111	0x3e68d13a	0.22736064
112	0xbe0da2bd	-0.13831611
113	0x3e3f0add	0.18656488
114	0x3db28ff0	0.0871886
115	0x3e1e390a	0.15451446
116	0x3da4efc7	0.080535464
117	0xbde65ce9	-0.1124819
118	0xbeb0f958	-0.34565234
119	0xbe88a1b8	-0.26685882
120	0xbea01eed	-0.31273594
121	0xbe792058	-0.24328744
122	0xbe173262	-0.14765313
123	0xbe90b85a	-0.2826565
124	0xbde4fe1a	-0.111812785
125	0xbdc067fb	-0.09394833
126	0xbd5449b4	-0.0518281
127	0x3e31d8c4	0.17367846
128	0x3e39d331	0.1814697
129	0x3f1826e1	0.59434325
130	0xbefa4a2a	-0.48884708
131	0x3f06dd88	0.5268178
132	0xbefff80a	-0.49993926
133	0xbc951190	-0.018196851
134	0xbe287de4	-0.16454273
135	0xbe759889	-0.23983969
136	0xbe800a32	-0.25007778
137	0xbeb0de86	-0.34544772
138	0xbe851cc4	-0.2599851
139	0x3efefeb4	0.49803698
140	0x3e86c47a	0.26321775
141	0x3ee72174	0.4514271
142	0x3e3d658d	0.1849577
143	0xbe5fb0c2	-0.21844772
144	0xbe4b2719	-0.19839133
145	0xbeb04689	-0.34428814
146	0xbe67fed0	-0.22655797
147	0x3e556b60	0.20841742
148	0x3ebf000a	0.37304717
149	0x3eec0c8e	0.46103328
150	0xbd8a4f99	-0.06753463
151	0x3ee9b7e8	0.45648122
152	0x3e216e85	0.15764816
153	0xbe0a57e0	-0.13510084
154	0xbe89f8c8	-0.26947618
155	0xbf281ed4	-0.6567204
156	0x3c1f206f	0.009712323
157	0xbe92f3b9	-0.2870157
158	0xbe24451c	-0.16041988
159	0x3e5d0a57	0.21585976
160	0xbf0a2dcc	-0.5397613
161	0x3e51cb15	0.20487626
162	0xbeea8aa7	-0.45808908
163	0x3dace4d8	0.08442086
164	0x3db37514	0.08762565
165	0xbeae3e74	-0.34032023
166	0xbe816d74	-0.2527882
167	0xbe8c4f91	-0.27404454
168	0xbecdf36a	-0.40224773
169	0xbe5b4ebd	-0.21416755
170	0xbeb6e7e9	-0.35723808
171	0xbcd7a628	-0.026324347
172	0xbea4412d	-0.32080975
173	0xbe9d1dc8	-0.30686784
174	0xbec04367	-0.37551424
175	0xbe6d0506	-0.23146448
176	0xbea7533c	-0.3268069
177	0xbe624b0c	-0.2209894
178	0xbe0b055e	-0.13576266
179	0xbe545e49	-0.20739092
180	0xbd61bf4c	-0.055114076
181	0xbeadbbaf	-0.33932254
182	0xbefa2527	-0.4885647
183	0x3e8c3d46	0.27390498
184	0x3d4b29a8	0.049600273
185	0x3f05b20d	0.5222481
186	0xbe214d67	-0.15752183
187	0xbe8c1ad9	-0.27364233
188	0xbdfcd6cc	-0.12345657
189	0xbeea2937	-0.4573457
190	0xbcb14c95	-0.021642962
191	0xbeb1f48f	-0.34756896
192	0xbdbd92bc	-0.09256503
193	0xbddc8fad	-0.107695915
194	0xbe81cbdd	-0.25350848
195	0x3dc8d68b	0.09806546
196	0xbe80788e	-0.25091976
197	0xbd8bf578	-0.06833929
198	0x3ea23856	0.31683606
199	0x3d64fada	0.055903293
200	0x3c5e6c60	0.013575643
201	0x3f177edd	0.59177953
202	0x3e9c1861	0.3048735
203	0x3d54599e	0.051843278
204	0x3e534c1f	0.20634507
205	0xbdf3f43d	-0.11911819
206	0x3ea45e36	0.32103127
207	0xbf16eb9f	-0.5895328
208	0x3db279be	0.08714627
209	0xbec4b0b5	-0.38416067
210	0xbe5f07fd	-0.21780391
211	0xbdb537c3	-0.08848526
212	0xbe26e82d	-0.16299506
213	0xbe8a51b5	-0.27015463
214	0xbec6ea8c	-0.3885082
215	0xbeb04db9	-0.34434298
216	0xbdef6626	-0.11689405
217	0xbe3e1e02	-0.18566135
218	0xbea5d658	-0.32390094
219	0xbe191fe8	-0.14953578
220	0xbe2ff9aa	-0.17185083
221	0xbe080cfb	-0.13286202
222	0xbe3af2f1	-0.18256737
223	0xbe45a2b2	-0.19300345
224	0xbed4b010	-0.41540575
225	0x3e776a2f	0.241616
226	0x3e648303	0.22315602
227	0x3e708900	0.23489761
228	0xbea073ed	-0.31338444
229	0xbe59ded2	-0.21276405
230	0xbe60f718	-0.21969259
231	0xbe9657b2	-0.2936378
232	0xbec19e9a	-0.37816316
233	0xbeadb4ee	-0.339271
234	0xbda29b12	-0.079397336
235	0x3e4f3b4f	0.20237468
236	0x3ced3b1b	0.028958848
237	0xbe4d28b6	-0.20035061
238	0x3e6e7a6a	0.23288885
239	0xbd597384	-0.05308868
240	0xbdc8f765	-0.09812812
241	0xbe56e9e3	-0.20987658
242	0xbdb0e85a	-0.086380675
243	0xbe905fa0	-0.28197956
244	0xbe8b7902	-0.2724076
245	0xbecd9321	-0.40151313
246	0xbe709fd9	-0.23498477
247	0xbe55ed80	-0.2089138
248	0xbe0b540b	-0.13606279
249	0x3e547312	0.20747021
250	0x3e59a19d	0.21253057
251	0x3d9636cd	0.07334671
252	0xbe803e0e	-0.25047344
253	0xbeab95bf	-0.33512685
254	0xbeb00e84	-0.34386075
255	0xbe01a9c5	-0.12662418

lstm.weight_hh_l0 f4 [512, 128]
0	0xbea456e8	-0.32097554
1	0xbe00c406	-0.12574777
2	0x3e219fc0	0.15783596
3	0x3eba8c42	0.36435133
4	0xbf185fcc	-0.59521174
5	0x3eb42633	0.35185394
6	0x3eaec412	0.34133965
7	0x3dc3fae7	0.0956934
8	0xbc64f7ce	-0.013975097
9	0xbe6f275d	-0.2335486
10	0xbeb3d373	-0.3512226
11	0xbd071eb0	-0.03298825
12	0xbe8e39ea	-0.2777856
13	0x3e982eee	0.29723305
14	0xbda2029a	-0.079106525
15	0xbdf6ef03	-0.120573066
16	0x3e442839	0.19155969
17	0xbe572c06	-0.21012887
18	0x3de17ddd	0.11010335
19	0x3c1590c0	0.009128749
20	0xbdb9226c	-0.090397686
21	0x3e4f82b8	0.20264709
22	0xbe63e0b3	-0.22253685
23	0x3dac16e8	0.084028065
24	0xbe9c11e2	-0.30482394
25	0xbe2508de	-0.16116664
26	0xbe755548	-0.23958313
27	0x3e6911fe	0.2276077
28	0x3e65bb70	0.22434783
29	0xbe81b2b3	-0.2533165
30	0xbe2a9015	-0.16656525
31	0x3ebe50ef	0.37171122
32	0x3e95894a	0.29206306
33	0xbd40efa8	-0.047103554
34	0xbe3f3e6d	-0.18676157
35	0x3e906b1e	0.28206724
36	0x3e7bc22e	0.24585792
37	0xbe5cd214	-0.21564513
38	0x3c998bfa	0.018743504
39	0xbe0de12b	-0.13855426
40	0x3e731396	0.2373794
41	0xbe873187	-0.26404974
42	0x3e948788	0.29009652
43	0xbe452f68	-0.19256365
44	0xbe5657b0	-0.20931888
45	0x3e75e48a	0.24012962
46	0x3ee8ff79	0.4550741
47	0xbd0e53f5	-0.034748036
48	0x3ebc8ed8	0.3682773
49	0x3ecad553	0.39615878
50	0xbe8bac96	-0.2728011
51	0x3ecbc2d1	0.3979707
52	0x3d9ed351	0.07755149
53	0x3dfcc902	0.12343027
54	0xbe51e474	-0.20497304
55	0xbe65c17a	-0.22437087
56	0x3eb184a2	0.34671503
57	0x3e5122b3	0.20423393
58	0xbe5d388a	-0.21603599
59	0x3e906896	0.28204793
60	0x3e4999bb	0.1968755
61	0x3e654d84	0.22392851
62	0xbde2223c	-0.11041686
63	0xbeb064e1	-0.34451964
64	0xbe4c4a39	-0.19950189
65	0x3e21f86b	0.1581742
66	0xbe8a0791	-0.26958898
67	0x3eebfbb4	0.46090472
68	0x3e089ecc	0.13341826
69	0xbeee8365	-0.4658462
70	0xbe87e674	-0.2654301
71	0xbeb41cae	-0.3517813
72	0x3b5fcfc2	0.0034150933
73	0x3e6247d9	0.2209772
74	0xbe657880	-0.22409248
75	0x3dc43cee	0.09581934
76	0x3ebbf2a8	0.3670857
77	0x3e9812bd	0.29701796
78	0xbe94b19c	-0.29041755
79	0x3e64836b	0.22315757
80	0xbe17242d	-0.14759894
81	0x3e6dd967	0.23227464
82	0x3deeab4b	0.11653765
83	0x3cf21b8c	0.029554151
84	0xbe481afa	-0.1954154
85	0x3da0cea3	0.07851913
86	0x3e1b5ab7	0.15171324
87	0x3e530d18	0.20610464
88	0xbe84817a	-0.25880033
89	0x3d794110	0.060853064
90	0xbe3da4bf	-0.18519877
91	0xbe406953	-0.18790178
92	0x3e3c713a	0.18402568
93	0x3e51d732	0.20492247
94	0xbe82e087	-0.25561926
95	0xbe9c9b91	-0.30587438
96	0xbe427641	-0.18990423
97	0x3eaa3eb8	0.33250976
98	0xbe8f6793	-0.28008708
99	0xbead213e	-0.33814424
100	0x3ccb72c9	0.024835007
101	0xbe8d5831	-0.27606347
102	0xbedb9a2c	-0.4289106
103	0x3e9bedcd	0.30454865
104	0x3ef563af	0.47927615
105	0x3e6c9fea	0.23107877
106	0xbe64551e	-0.22298095
107	0xbe97ca3e	-0.29646486
108	0xbefa461e	-0.4888162
109	0xbe352d0a	-0.17692962
110	0xbe455001	-0.192688
111	0x3ecd3264	0.40077507
112	0xbe4439d5	-0.19162686
113	0x3e4fa8cb	0.20279233
114	0xbe6e6e38	-0.23284233
115	0x3dc55378	0.09635061
116	0x3e595e46	0.21227369
117	0x3ece5b49	0.4030402
118	0xbe91255e	-0.2834882
119	0x3d81b23b	0.06332823
120	0x3e69c1aa	0.22827783
121	0xbc9e0ade	-0.019292291
122	0xbed31a84	-0.41231167
123	0xbdb98dcd	-0.090602495
124	0xbe2b9c8b	-0.16758935
125	0x3f0343f0	0.5127554
126	0x3ecceefe	0.40026087
127	0x3e60d35d	0.21955629
128	0x3e0abceb	0.13548629
129	0x3bb62f03	0.0055598035
130	0x3e015b92	0.12632588
131	0xbe41e249	-0.18933977
132	0x3d153fa4	0.036437646
133	0x3ddc2c19	0.107505985
134	0xbdf902f7	-0.121587686
135	0xbebc5c55	-0.36789194
136	0xbd1d5409	-0.03841022
137	0x3e1a2d80	0.1505642
138	0x3d4aed31	0.04954261
139	0x3e9127cf	0.28350684
140	0x3daedb28	0.085378945
141	0xbdfb2cf9	-0.12264437
142	0xbda66a36	-0.08125727
143	0x3dd8ad09	0.10579879
144	0x3e54fe04	0.20800024
145	0x3d932708	0.07185179
146	0xbd0a74d7	-0.033802833
147	0x3d183234	0.037157252
148	0xbe38c156	-0.18042502
149	0xbecd8f5a	-0.4014843
150	0x3e56935b	0.20954649
151	0x3dfd0ca4	0.12355927
152	0xbe1399fc	-0.14414209
153	0x3eb8ed34	0.36118472
154	0xbdf5ce4b	-0.12002238
155	0xbe39a630	-0.18129802
156	0xbe589bb2	-0.21153143
157	0x3e473427	0.19453488
158	0x3e37ae2f	0.1793754
159	0xbec17511	-0.37784627
160	0xbd8fa46c	-0.07013783
161	0x3e84d260	0.25941753
162	0xbeb9fc4f	-0.3632531
163	0xbe434ea2	-0.19072965
164	0x3dacf216	0.08444612
165	0x3df2fa07	0.11864095
166	0xbd65b6ac	-0.056082413
167	0x3d309512	0.043110915
168	0xbcbf564d	-0.023356581
169	0x3db5d6c1	0.08878852
170	0x3d87864e	0.066174135
171	0x3e19f19c	0.15033573
172	0xbd942afc	-0.07234761
173	0xbe526c9e	-0.20549247
174	0x3db2616f	0.0870999
175	0xbe88b102	-0.26697546
176	0xbe15cd8b	-0.1462919
177	0xbdac8556	-0.08423869
178	0xbe156a67	-0.1459137
179	0xbce3825a	-0.027772117
180	0xbdb946a5	-0.090466775
181	0x3cc54c9e	0.024084385
182	0xbdd8f45a	-0.10593481
183	0x3da20048	0.0791021
184	0xbe60dd9c	-0.21959537
185	0xbe6745d5	-0.22585233
186	0x3e634090	0.22192597
187	0xbe309023	-0.17242484
188	0xbe3e44f7	-0.18580996
189	0xbeb91c90	-0.36154604
190	0x3e396739	0.18105783
191	0xbd678406	-0.05652239
192	0x3e37d3b5	0.17951854
193	0xbe8d372a	-0.2758115
194	0x3eed21cf	0.46314856
195	0xbb59b743	-0.0033220805
196	0xbddc1b04	-0.1074734
197	0x3cf50ae0	0.029912412
198	0x3e417f14	0.18896133
199	0x3e2fb8ce	0.17160341
200	0x3d2b324a	0.041796006
201	0xbe00d228	-0.12580168
202	0x3e9b3175	0.3031117
203	0xbebe3003	-0.37146005
204	0xbdbc4a3a	-0.09193845
205	0xbe3fc0a7	-0.18725835
206	0xbe10c63a	-0.14138117
207	0xbe370865	-0.17874296
208	0x3dfc3750	0.123152375
209	0xbe8cbc69	-0.27487496
210	0xbdd4c785	-0.10389618
211	0x3e3421c7	0.1759101
212	0xbab9e490	-0.0014182497
213	0xbe13e204	-0.14441687
214	0x3d4be893	0.049782347
215	0xbc5861c1	-0.0132069
216	0x3dc26e2c	0.0949367
217	0x3d050853	0.03247864
218	0x3dad094e	0.0844904
219	0x3e3bb284	0.18329817
220	0x3eacf2af	0.33778903
221	0xbe6d88b3	-0.23196678
222	0x3e104edd	0.14092584
223	0xbbd2ec8b	-0.0064368895
224	0x3d8995e5	0.06718043
225	0xb84cf089	-4.8861406e-05
226	0x3dc6b135	0.09701768
227	0x3e929443	0.2862874
228	0x3e495881	0.19662668
229	0x3df50691	0.11964143
230	0x3e18b379	0.14912213
231	0xbdae7baf	-0.085196845
232	0xbcf46b96	-0.029836457
233	0xbe724339	-0.23658456
234	0x3e09037b	0.13380234
235	0x3e64956b	0.22322623
236	0x3eabf2f6	0.33583802
237	0xbb5a0c8b	-0.0033271636
238	0x3dfc8315	0.123296894
239	0x3cd33522	0.025782172
240	0x3de672c4	0.112523586
241	0xbe69ef01	-0.22845079
242	0x3da12556	0.078684494
243	0xbe4508a2	-0.19241574
244	0xbe401e8e	-0.18761656
245	0x3db636ef	0.088971965
246	0xbc80935e	-0.01569527
247	0xbed6c414	-0.4194647
248	0xbe32dd39	-0.17467202
249	0xbe4b75df	-0.19869183
250	0xbcacc5b9	-0.021090375
251	0xbe30ebda	-0.1727747
252	0xbd28aaf8	-0.041178674
253	0x3d27d1e7	0.040971663
254	0xbdaaeb34	-0.08345643
255	0x3e3162e0	0.17322874

lstm.bias_ih_l0 f4 [512]
0	0x3e154da9	0.14580406
1	0x3d198750	0.03748256
2	0x3e6cca2b	0.23123996
3	0x3d64b90f	0.055840548
4	0x3e1a16df	0.15047787
5	0x3e096632	0.1341789
6	0x3cd86a13	0.026417768
7	0x3c8fd15c	0.017555885
8	0x3dccdc2c	0.10002932
9	0x3c1040d6	0.008804521
10	0x3daffe02	0.0859337
11	0x3e00583d	0.1253366
12	0x3e003fa2	0.12524274
13	0xbc7e9571	-0.015538559
14	0x3e18fc39	0.14939965
15	0x3c26eb79	0.010187977
16	0x3e43de17	0.1912769
17	0x3dcdc4e8	0.100473225
18	0x3d428ef4	0.047499612
19	0x3e04863d	0.12941833
20	0x3e1ab9d2	0.15109947
21	0x3e5ff194	0.21869498
22	0xbd59b0dc	-0.053147182
23	0x3e81094b	0.25202402
24	0x3e4b2af6	0.19840607
25	0x3d9475f8	0.07249063
26	0x3dff85c1	0.124766834
27	0x3d7f2751	0.062293354
28	0x3cc1ca7c	0.023656122
29	0xbd9849d5	-0.07435957
30	0xbd0f013a	-0.03491328
31	0x3e9bd0a6	0.30432624
32	0x3c81912c	0.015816294
33	0x3e36c6a6	0.17849216
34	0x3e9d52a5	0.30727115
35	0x3dea0534	0.11426774
36	0x3e900a46	0.28132838
37	0x3e32759c	0.17427677
38	0x3bf2df39	0.007411864
39	0xbc9b60ce	-0.018967059
40	0x3d8a1121	0.06741548
41	0x3e0d649e	0.13807914
42	0xbc4e31f8	-0.012585156
43	0x3df9510d	0.12173662
44	0x3e05cfa7	0.13067494
45	0x3da7e82d	0.08198581
46	0x3e327c65	0.17430265
47	0x3e60c47a	0.2194995
48	0x3d9c48cb	0.07631072
49	0x3e727577	0.23677622
50	0x3dc6aaf7	0.09700578
51	0xbdba74e7	-0.091043286
52	0x3d240f57	0.04005369
53	0xbcd5fa53	-0.02612034
54	0x3c42ee08	0.011897571
55	0x3c885e98	0.016646668
56	0x3d74a35f	0.059726115
57	0xbb43dd1a	-0.0029886425
58	0x3d32dd1d	0.0436679
59	0xbd2d2b0b	-0.042277377
60	0x3d339dfd	0.04385184
61	0x3dcddf5f	0.1005237
62	0x3db7af86	0.08969025
63	0x3bb6bd36	0.005576755
64	0xbd4b0161	-0.049561862
65	0x3e40d029	0.18829407
66	0x3e663aec	0.22483414
67	0x3e9973de	0.29971212
68	0x3ada248d	0.0016642973
69	0x3dcd16e1	0.100141294
70	0x3e15e4ba	0.14638034
71	0xbd20276f	-0.039100107
72	0x3de5ae3f	0.112148754
73	0xbc1abbd9	-0.0094442
74	0x3c763b94	0.015028853
75	0x3e3e89de	0.1860728
76	0xbd24f9c3	-0.040277254
77	0x3dbbbeab	0.091672264
78	0x3dd71ffd	0.10504148
79	0x3d9afbee	0.07567583
80	0x3b9b87fa	0.0047464343
81	0x3ce8ac0c	0.02840235
82	0xbce315ff	-0.02772045
83	0x3e52f859	0.2060255
84	0x3dcbec4c	0.099571794
85	0x3da7766b	0.08176883
86	0xbcd19d45	-0.025587687
87	0x3ccf7da4	0.025328465
88	0x3e065d62	0.1312156
89	0x3d20c29b	0.03924809
90	0xbcad784d	-0.021175528
91	0x3db1e5f2	0.08686437
92	0x3e2dd841	0.16977026
93	0xbd4a1bd5	-0.04934295
94	0x3cf0c580	0.02939105
95	0x3e449f33	0.19201355
96	0x3dd17655	0.10227648
97	0xbd93ddbf	-0.07220029
98	0xbd4261db	-0.047456603
99	0xbceba3eb	-0.028764686
100	0x3e2472e5	0.16059454
101	0x3e0fe5ec	0.14052552
102	0x3e920ebd	0.2852687
103	0x3ddcffd9	0.107909866
104	0x3e8e35bc	0.2777537
105	0xbb7e83d4	-0.00388359
106	0x3e007782	0.12545589
107	0x3dc580b9	0.096436925
108	0x3d9d239c	0.076728076
109	0x3e05977f	0.13046072
110	0x3c4af640	0.012387812
111	0x3e370270	0.17872024
112	0xbc2a9886	-0.010412341
113	0x3df62bbf	0.12020063
114	0x3dfa7880	0.12230015
115	0x3ca1f6c9	0.019770997
116	0xbcb6a70d	-0.022296453
117	0x3da2a511	0.0794164
118	0x3e078b99	0.13236846
119	0x3d69acb3	0.057049464
120	0xbcc799e5	-0.024365375
121	0x3e0aab66	0.13541946
122	0x3e2208ae	0.15823624
123	0x3e51fdcf	0.20506977
124	0x3c86575b	0.016399076
125	0x3d81d18f	0.06338798
126	0x3e49499b	0.19656985
127	0x3e5f9e28	0.21837676
128	0xbe09cf8e	-0.13458082
129	0xbe29a078	-0.1656512
130	0xbe19ce81	-0.15020181
131	0x3d07ae82	0.033125408
132	0xbe3abe74	-0.18236715
133	0x3d264626	0.040594243
134	0x3c1629bd	0.009165225
135	0xbe651d0a	-0.22374359
136	0xbe01b935	-0.12668307
137	0x3c7b86f4	0.015352
138	0xbd6f2e22	-0.058393605
139	0xbd2411b7	-0.040055957
140	0x3e29b3c3	0.1657248
141	0xbd2b7c9a	-0.041866876
142	0xbcf0f793	-0.029414928
143	0x3cfdf280	0.030999422
144	0x3c1e06b4	0.009645153
145	0xbd510da0	-0.051038384
146	0xbc2157a7	-0.009847558
147	0x3d8a4e47	0.067532115
148	0xbd40ef32	-0.047103114
149	0x3dbbc6dc	0.09168789
150	0x39fe38b3	0.000484889
151	0x3d9142f3	0.07092848
152	0xbce6ecb9	-0.02818905
153	0xbd409eca	-0.047026433
154	0x3d7d808d	0.061890174
155	0xbd6bebcb	-0.057597917
156	0xbd191884	-0.037376896
157	0xbd5435c9	-0.051809106
158	0x3cd518ae	0.026012745
159	0xbdf24499	-0.1182949
160	0x3d94e5b4	0.07270375
161	0xbddcddb0	-0.10784471
162	0x3c63ae0e	0.013896478
163	0x3d542e1f	0.051801797
164	0x3d830eb3	0.06399288
165	0x3de7f903	0.11326792
166	0xbcd8531f	-0.026406823
167	0x3ddb4a85	0.10707573
168	0x3da8b2b0	0.08237207
169	0x3e25d7d4	0.16195613
170	0xbdc11e8b	-0.09429654
171	0xbe108544	-0.14113337
172	0x3d733212	0.059373923
173	0x3deeed2e	0.11666332
174	0xbe5d8d1a	-0.21635857
175	0xbe0dbe51	-0.13842131
176	0xbcee1beb	-0.029066047
177	0xbe0f8e5c	-0.1401915
178	0xbd764c80	-0.06013155
179	0x3d3d3199	0.046189878
180	0xbc4ac683	-0.01237643
181	0xbe0641b1	-0.13110997
182	0xbe92abc7	-0.2864668
183	0x3d85f0ba	0.065400556
184	0xbdadd289	-0.08487422
185	0x3cf8f76e	0.030391421
186	0xbd1bfce0	-0.038082957
187	0x3db73117	0.0894491
188	0x3cb526d4	0.022113241
189	0xbe21e7a9	-0.15811028
190	0x3dea8f7d	0.114531495
191	0xbd52ecc8	-0.051495343
192	0x3d388615	0.045049746
193	0xbc540150	-0.012939766
194	0xbdc76f18	-0.09737986
195	0xbddaae2b	-0.10677751
196	0xbdba24ef	-0.09089076
197	0xbd3e3d81	-0.046445373
198	0x3db374bc	0.087625
199	0xbd7fc306	-0.06244185
200	0x3cd06ab9	0.025441514
201	0xbccb011e	-0.024780806
202	0xbd90e61d	-0.070751406
203	0xbcd68f80	-0.026191473
204	0x3e1113a1	0.14167644
205	0x3dc1a2f8	0.09454912
206	0x3d6389e0	0.05555141
207	0xbe10a721	-0.14126255
208	0xbc297156	-0.010341963
209	0x3da4136e	0.080115184
210	0x3d785202	0.060625084
211	0x3e318188	0.17334569
212	0x3d52d02d	0.051468063
213	0x3ddfcef8	0.10928148
214	0xbd9ad62f	-0.075603835
215	0xbc6e0a5d	-0.014528838
216	0x3cf80296	0.03027467
217	0x3e0511c8	0.12995064
218	0xbb551909	-0.0032516143
219	0xbc9d961c	-0.019236617
220	0xbd2b068a	-0.041754283
221	0x3dd781b6	0.10522787
222	0x3cfbc093	0.030731475
223	0xbcba71c2	-0.022759322
224	0x3dca69dc	0.09883472
225	0x3b84dcd3	0.0040546446
226	0x3c8325df	0.01600927
227	0x3c9b882a	0.018985827
228	0x3d011b2f	0.031520065
229	0xbe3b07e6	-0.18264732
230	0xbd8db244	-0.06918767
231	0xbd751249	-0.05983189
232	0xbca9956d	-0.020701135
233	0x3cb57023	0.022148198
234	0xbe8e0d12	-0.27744347
235	0x3e1103b1	0.14161564
236	0xbe6017cf	-0.21884082
237	0x3df3a401	0.11896516
238	0x3aef7fd5	0.001827235
239	0x3c4be90a	0.012445698
240	0xbca05f45	-0.019576678
241	0x3dca75e4	0.09885767
242	0x3ce74409	0.028230684
243	0x3deaf42d	0.11472354
244	0xbbdc0a4f	-0.006715096
245	0xbd192b6f	-0.037394937
246	0xbc387e62	-0.011260601
247	0x3b00a1da	0.001962772
248	0x3de02921	0.10945345
249	0x3d21c2f3	0.03949256
250	0xbde086a6	-0.10963182
251	0x3ca929f9	0.020649897
252	0x3da9566e	0.08268438
253	0xbc90d8b6	-0.01768146
254	0xbdf4fe02	-0.11962511
255	0x3db2fccd	0.08739624

lstm.bias_hh_l0 f4 [512]
0	0x3e159317	0.14606892
1	0x3ce85419	0.028360413
2	0x3eab6b63	0.33480367
3	0xbd4372d6	-0.047716938
4	0xbbe64f5b	-0.007028503
5	0x3dbf8467	0.093514256
6	0x3c5c2dc2	0.013438644
7	0x3cd3acb7	0.025839193
8	0x3d8c3ec8	0.06847912
9	0x3d95a699	0.073071666
10	0x3e362bb7	0.17790113
11	0x3e245376	0.16047463
12	0x3b9b7222	0.0047438303
13	0x3cdf53f9	0.027261721
14	0x3e1da79d	0.1539597
15	0xbd3923a0	-0.04519999
16	0x3d64e2ae	0.05588024
17	0x3d98c21c	0.074588984
18	0xbc419876	-0.011816135
19	0x3cd2d257	0.025735063
20	0x3dbf5040	0.09341478
21	0x3e7f1d51	0.24913527
22	0xbcf9fb92	-0.030515466
23	0x3e4451ad	0.19171782
24	0x3de8b56f	0.11362731
25	0x3e0d8f61	0.13824226
26	0x3e17592f	0.14780115
27	0xbc098430	-0.008393332
28	0x3cab1519	0.020884084
29	0x3c1f7a6b	0.009733777
30	0x3d43995d	0.04775368
31	0x3ea8bb22	0.3295527
32	0x3c8a552b	0.016886314
33	0x3ddf134f	0.10892355
34	0x3e8453ac	0.25845087
35	0x3c6a4442	0.0142985005
36	0x3e684035	0.22680743
37	0x3e0d131c	0.13776821
38	0x3de752ba	0.11295076
39	0x3dc04782	0.09388639
40	0x3dfb9f41	0.12286235
41	0x3d456116	0.04818829
42	0x3e01ba3d	0.126687
43	0x3e38a669	0.1803223
44	0x3e01bbd8	0.12669313
45	0x3e14a8a5	0.14517458
46	0x3ddd2cf9	0.107995935
47	0x3e870e43	0.26378068
48	0x3e2a7eb0	0.1664989
49	0x3dcdf344	0.10056165
50	0x3d3d6583	0.046239387
51	0x3d0f1ed0	0.034941494
52	0x3d9effd2	0.077636376
53	0x3d66f64d	0.056387234
54	0x3d90ecc6	0.07076411
55	0x3e06e753	0.1317418
56	0x3cc48b21	0.023992123
57	0xbc4e81ea	-0.012604216
58	0xbcb1d179	-0.02170633
59	0x3c326101	0.010887385
60	0x3c0eacef	0.008708223
61	0x3d4b0ddd	0.049573768
62	0xbbcaee91	-0.00619299
63	0x3dec0ed4	0.11526266
64	0xbd06dbbf	-0.03292441
65	0x3e1e98b7	0.15487944
66	0x3e53d166	0.20685348
67	0x3e5509c4	0.20804507
68	0xbd1bf048	-0.038070947
69	0x3b3d9534	0.0028928043
70	0x3d2dd129	0.0424358
71	0xbd0d5862	-0.034508117
72	0x3d26dc15	0.04073723
73	0xbc950da3	-0.018194979
74	0xbdee2d84	-0.11629775
75	0x3e494640	0.19655704
76	0x3b1a1cc9	0.0023515692
77	0x3d05b198	0.03264007
78	0x3e314377	0.17310892
79	0x3e281c8d	0.16417141
80	0x3d087e4b	0.033323567
81	0xbcf3cf4e	-0.029761937
82	0x3d0a2d8c	0.033734843
83	0x3e368cad	0.17827101
84	0x3d988310	0.07446873
85	0x3ca6b66b	0.020350656
86	0x3c912db3	0.017721986
87	0x3d8a73d7	0.06760376
88	0xbc37d6f0	-0.011220679
89	0x3d97ca96	0.07411687
90	0x3db45ed8	0.088071525
91	0xbd2f70b4	-0.04283209
92	0x3e0c7925	0.13718088
93	0x3dd4443a	0.10364576
94	0x3d995113	0.07486167
95	0x3dd19c09	0.102348395
96	0x3dc9044d	0.098152734
97	0xbcbe4473	-0.023225999
98	0x3d97c8fd	0.07411382
99	0x3d3d800e	0.0462647
100	0x3e811be5	0.25216594
101	0x3e698de9	0.2280804
102	0x3e833c6c	0.25632036
103	0x3dc349f9	0.095355935
104	0x3eba740b	0.3641666
105	0x3de687b6	0.112563536
106	0x3dd3f7c6	0.103499934
107	0xbd8a5863	-0.0675514
108	0x3e124dd4	0.14287502
109	0x3d38a882	0.045082577
110	0x3d9a1edd	0.07525418
111	0x3e8e3284	0.27772915
112	0x3dba20b6	0.0908827
113	0x3dc03f17	0.093870334
114	0x3cacbf0c	0.021087192
115	0x3e2f03e8	0.17091334
116	0x3dafd6a8	0.08585864
117	0x3d97a7ad	0.074050285
118	0x3e07453f	0.13210009
119	0x3d4179a9	0.047235165
120	0x3d90a173	0.07062044
121	0x3e102796	0.14077601
122	0x3e0ea71a	0.13930932
123	0x3e976a86	0.29573458
124	0x3d8b0207	0.06787496
125	0x3d9c0478	0.0761804
126	0x3dc2087e	0.09474276
127	0x3e964df1	0.2935634
128	0xbdbd0236	-0.09228937
129	0xbe07bd14	-0.13255721
130	0xbca1d9d4	-0.019757189
131	0x3dc89de9	0.09795744
132	0xbde11c41	-0.10991717
133	0xbd149808	-0.0362778
134	0x3d577765	0.052604098
135	0xbe0a88de	-0.13528773
136	0xbdba77e0	-0.091048956
137	0x3dba6ef6	0.09103195
138	0xbd631f6b	-0.055449884
139	0x3ceb303c	0.028709523
140	0x3d7b9021	0.06141675
141	0xbd304628	-0.043035656
142	0x3d6e5459	0.05818591
143	0x3de2c074	0.11071864
144	0x3d768a9e	0.06019079
145	0x3d0c4490	0.034245074
146	0x3d5f25ee	0.054479532
147	0x3ca5ff1b	0.020263245
148	0xbdc3f52f	-0.095682494
149	0xbd97324c	-0.0738264
150	0x3d5ff320	0.05467522
151	0x3c93fe9a	0.01806574
152	0xbe1baffd	-0.15203853
153	0xbd77f5ce	-0.060537152
154	0x3dc93d2c	0.09826121
155	0xbe07ae90	-0.13250184
156	0x3d6fcd44	0.058545366
157	0xbd6969cc	-0.05698566
158	0x3d77b3e9	0.06047431
159	0xbdeba20b	-0.115055166
160	0x3de686ad	0.11256156
161	0xbdfb9324	-0.12283924
162	0x3e321cc2	0.17393783
163	0x3c24f3e7	0.0100679165
164	0x3d15ed29	0.036603127
165	0xbcbcdb63	-0.02305383
166	0xbdbfd3a7	-0.09366541
167	0x3cf05258	0.02933614
168	0x3dc77c78	0.097405374
169	0x3de84c70	0.11342704
170	0xbc1fd72b	-0.00975589
171	0xbdacc83b	-0.084366284
172	0x3db33376	0.0875005
173	0x3d6e87c1	0.058234934
174	0xbe228f6e	-0.15875027
175	0xbe26585b	-0.16244642
176	0x3dadab4b	0.08479937
177	0xbdf90bc8	-0.1216045
178	0x3d3eebbe	0.04661154
179	0xbd3e37e5	-0.046440024
180	0x3da268f1	0.07930172
181	0xbe1bc349	-0.15211214
182	0xbe81c0c8	-0.25342393
183	0x3cdae560	0.026720703
184	0xba2590ec	-0.00063158455
185	0x3d4b2754	0.049598053
186	0x3d81ed51	0.06344093
187	0x3dafd5e9	0.08585722
188	0xbc6730dc	-0.01411077
189	0xbe03df37	-0.12878118
190	0xbd3b1613	-0.04567535
191	0x3b53b603	0.0032304532
192	0x3d4e67eb	0.050392073
193	0xbd2780cc	-0.040894315
194	0xbcca4b55	-0.024694124
195	0xbdad586d	-0.084641315
196	0xbdcc37eb	-0.09971603
197	0xbd8b745c	-0.06809303
198	0x3c8955f5	0.01676462
199	0xbd07e1bc	-0.03317426
200	0x3dd86352	0.10565819
201	0xbd797b7b	-0.060908776
202	0xbd748634	-0.0596983
203	0x3d0238ae	0.031792335
204	0x3deb7809	0.11497504
205	0xbaab667c	-0.0013076807
206	0x3c9970ce	0.018730547
207	0xbcf3929a	-0.029732991
208	0x3c9677f3	0.018367743
209	0xbc2ab69e	-0.010419516
210	0x3d868f8f	0.065703504
211	0x3d245657	0.040121403
212	0x3e424a28	0.18973601
213	0x3de06064	0.10955885
214	0xbd3b7855	-0.045769054
215	0x3ce33416	0.027734797
216	0xbc80c955	-0.015721003
217	0xbc7d3a3d	-0.01545578
218	0xbd87f7bc	-0.066390485
219	0x3da6ef8e	0.0815116
220	0xbe0fd9d7	-0.14047943
221	0x3cf27aa3	0.029599493
222	0xbc7b3ec7	-0.0153347915
223	0xbdec5871	-0.11540306
224	0x3e0264b0	0.12733722
225	0xbd9e8c29	-0.07741577
226	0x3cc12c93	0.023580825
227	0x3cd028a6	0.025410008
228	0x3d97159b	0.07377168
229	0xbe49bdd6	-0.19701323
230	0xbe090cef	-0.1338384
231	0xbd78a525	-0.06070437
232	0x3cf9c1f1	0.030487986
233	0xbc4ea8b6	-0.012613466
234	0xbe5be527	-0.21474133
235	0x3e029e33	0.1275566
236	0xbdeb1dda	-0.11480303
237	0x3dc3272f	0.09528958
238	0x3c29c308	0.0103614405
239	0x3caf2c7a	0.021383513
240	0x3d1bf731	0.038077537
241	0x3d908712	0.070570126
242	0x3d9e3961	0.07725788
243	0x3db184ef	0.08667933
244	0x3d115cf4	0.035489038
245	0xbddcb275	-0.107762255
246	0x3dbd1249	0.09232003
247	0xbcfb05a2	-0.030642334
248	0x3d14a4d2	0.036289997
249	0x3d2c0ae1	0.042002562
250	0xbe779dd2	-0.24181297
251	0xbdf20233	-0.11816826
252	0x3dc1960c	0.09452447
253	0x3c9f824c	0.01947131
254	0xbda0658c	-0.078318685
255	0x3dbef66b	0.09324344

fc.weight f4 [3, 128]
0	0xbe5d71ca	-0.21625438
1	0x3e53414f	0.20630382
2	0xbeb4b00a	-0.35290557
3	0xbe8ea925	-0.27863422
4	0xbddd40cc	-0.10803375
5	0xbdb59a50	-0.088673234
6	0xbe4510ad	-0.19244643
7	0x3e39dac4	0.18149859
8	0x3e170e64	0.14751583
9	0x3e6ad383	0.22932248
10	0xbe09e819	-0.13467444
11	0xbeb31b75	-0.34981886
12	0x3e5fcf1a	0.21856347
13	0xbd300db6	-0.042981826
14	0x3eb69f22	0.35668284
15	0x3e2d7c41	0.1694193
16	0xbeb8f464	-0.36123955
17	0x3e8ea0d3	0.27857074
18	0xbd5f148a	-0.054462947
19	0x3ea7efc8	0.32800126
20	0xbea16129	-0.3151944
21	0x3ec6457d	0.3872489
22	0x3e5f9632	0.21834639
23	0xbeae5ffc	-0.34057605
24	0x3eba591a	0.36396104
25	0x3e4e1c31	0.20127942
26	0xbf084ec5	-0.5324519
27	0x3ec187ae	0.37798828
28	0xbdcbd549	-0.0995279
29	0xbd2e939c	-0.04262124
30	0x3de4c5aa	0.11170514
31	0x3ec5ddb8	0.3864572
32	0xbe47c9c7	-0.19510566
33	0xbedf588b	-0.4362224
34	0x3edfe94f	0.43732688
35	0xbe66526c	-0.22492379
36	0xbeded85e	-0.4352445
37	0x3ef73274	0.4828068
38	0x3ec161e4	0.37769997
39	0x3e5cccdb	0.21562521
40	0xbde0b1bb	-0.109713994
41	0x3e556c37	0.20842062
42	0xbed969a2	-0.42463404
43	0xbf09d736	-0.5384401
44	0x3eebfe6f	0.46092555
45	0xbe81f397	-0.25381157
46	0xbec124e3	-0.37723455
47	0xbe7634ba	-0.24043551
48	0x3cb316ef	0.021861522
49	0x3e73207c	0.2374286
50	0x3e9e7668	0.30949712
51	0x3ed14250	0.40870905
52	0xbe965dd9	-0.29368475
53	0xbec233d6	-0.37930173
54	0x3e9e9154	0.30970252
55	0x3e864433	0.26223907
56	0x3db66b1f	0.089071505
57	0xbe0d5941	-0.13803579
58	0x3e5911ae	0.2119815
59	0xbe037050	-0.12835813
60	0xbe18719f	-0.14887093
61	0x3e5e1a04	0.21689612
62	0x3e7814e1	0.24226715
63	0x3ed5f1d2	0.41786057
64	0x3e03e1f5	0.12879165
65	0x3efe7aba	0.49703008
66	0xbedbc5ea	-0.42924434
67	0x3e7d6664	0.2474609
68	0x3d8bd611	0.06827939
69	0x3e4d1bd8	0.20030153
70	0x3e807349	0.25087956
71	0x3e36c88f	0.17849945
72	0x3ee72ecb	0.45152888
73	0xbe2ee726	-0.17080364
74	0x3e2ba06e	0.16760418
75	0x3eb5fec3	0.3554593
76	0xbe829382	-0.25503165
77	0xbe873b9f	-0.26412675
78	0x3f030e2c	0.511935
79	0xbe953148	-0.2913916
80	0x3e326beb	0.1742398
81	0xbd7b8241	-0.061403517
82	0xbe4271ff	-0.18988799
83	0xbf0bcf92	-0.546136
84	0x3ea48be6	0.32137984
85	0xbe24967d	-0.16073032
86	0xbe7c5794	-0.24642783
87	0xbec4989f	-0.3839769
88	0x3e6eb413	0.2331088
89	0xbe9819bb	-0.2970713
90	0x3e752573	0.23940067
91	0x3e3e0f5f	0.18560551
92	0xbef32dd9	-0.47495916
93	0xbe528583	-0.20558743
94	0x3e5fa333	0.218396
95	0x3f04f681	0.51938635
96	0x3e4eca49	0.20194353
97	0x3da7980f	0.081833
98	0x3e58b3db	0.2116236
99	0x3dd57765	0.10423163
100	0xbeb4b446	-0.35293788
101	0xbed2baed	-0.41158238
102	0xbe62878b	-0.22122018
103	0xbeb0803b	-0.34472832
104	0xbde692e4	-0.11258486
105	0xbe770edb	-0.2412676
106	0x3ebcc2ee	0.3686747
107	0x3e37c9e1	0.17948104
108	0xbe9489a1	-0.29011253
109	0x3eba99a7	0.36445352
110	0x3e67af76	0.22625527
111	0xbe8726d8	-0.26396823
112	0x3e232812	0.15933254
113	0xbe61adac	-0.22038907
114	0x3e6f9e25	0.23400171
115	0xbe5e6252	-0.21717194
116	0xbe580846	-0.21096906
117	0xbe607691	-0.2192023
118	0x3eb48dcf	0.3526444
119	0x3ec1ff81	0.37890247
120	0xbdfd7e84	-0.123776466
121	0x3e9fe9f4	0.3123318
122	0x3d1e7d18	0.038693517
123	0x3ed39b4a	0.41329414
124	0x3e93c20f	0.28858992
125	0x3ee4deeb	0.44701323
126	0xbeb3ed6b	-0.35142073
127	0xbf01529f	-0.50516695
128	0xbe6cbed4	-0.2311967
129	0x3db6ca65	0.089253224
130	0xbd869086	-0.065705344
131	0x3e63e67b	0.2225589
132	0xbddafe1f	-0.10693001
133	0x3e97214d	0.29517594
134	0x3e2712b6	0.16315731
135	0x3e18e662	0.14931634
136	0x3ee61dd3	0.4494463
137	0xbde91f58	-0.113829315
138	0xbe1450e6	-0.14483985
139	0x3d6bb39a	0.05754433
140	0xbe21bb99	-0.15794219
141	0x3e7b9d0f	0.24571632
142	0xbe061ae6	-0.13096198
143	0xbd977127	-0.07394629
144	0x3d950a7e	0.07277392
145	0xbe318573	-0.17336063
146	0xbd86b6fe	-0.06577872
147	0xbcfc1dd7	-0.030775947
148	0xbe9e36b9	-0.30901125
149	0xbe4ae585	-0.19814117
150	0xbdd15b34	-0.10222474
151	0x3e0695e9	0.13143124
152	0xbdd0276a	-0.10163768
153	0xbe1dfd15	-0.15428574
154	0xbd5140f1	-0.051087324
155	0xbd207290	-0.039171755
156	0x3e296227	0.16541348
157	0xbea74406	-0.32669085
158	0xbe5ef58f	-0.2177336
159	0x3e42a8c2	0.19009688
160	0x3e6de0bd	0.23230262
161	0x3e210a8d	0.15726681
162	0xbdf4337f	-0.119238846
163	0x3eb2fa5e	0.3495664
164	0xbdd17b90	-0.10228646
165	0xbd52d735	-0.05147477
166	0xbe29a426	-0.16566524
167	0xbd8c2e8a	-0.06844814
168	0x3e20fbb0	0.15721011
169	0xbe10260b	-0.14077012
170	0x3dadd7ef	0.08488452
171	0xbc88f07f	-0.01671624
172	0xbe24b593	-0.1608489
173	0x3df7b3ff	0.120948784
174	0x3e6a2992	0.2286742
175	0xbe40744f	-0.18794368
176	0x3e7fb5f2	0.2497175
177	0x3e641956	0.2227529
178	0xbd7cbd6b	-0.06170408
179	0xbd9151a1	-0.070956476
180	0x3d5f4f48	0.054518968
181	0xbd07c10c	-0.03314309
182	0xbd913c9f	-0.07091641
183	0xbe06fb21	-0.13181736
184	0x3e49287b	0.19644348
185	0x3e67f35a	0.22651425
186	0xbdf1f5e1	-0.11814476
187	0x3e4da38b	0.20081918
188	0x3e8850a6	0.2662403
189	0x3e823b7d	0.2543601
190	0xbd9137c6	-0.07090716
191	0xbe625eda	-0.22106495
192	0xbe2a4146	-0.16626462
193	0xbd8d1e4b	-0.068905436
194	0x3c5886e8	0.013215758
195	0x3e4c1476	0.1992968
196	0x3e43312c	0.19061726
197	0xbeac0fbb	-0.3360575
198	0xbe1d4d03	-0.15361409
199	0xbe5067d9	-0.20352115
200	0xbe17b669	-0.14815678
201	0x3e247429	0.16059937
202	0xbd82e13b	-0.063906156
203	0xbe1f3bf0	-0.15550208
204	0x3e37e7d5	0.1795953
205	0x3e1c1961	0.15244056
206	0xbe130ba7	-0.14359914
207	0x3d2e73d1	0.04259092
208	0xbdef5738	-0.116865575
209	0x3e36a31e	0.17835662
210	0x3e008d2d	0.12553854
211	0x3d81f56b	0.06345638
212	0xbe396b22	-0.18107274
213	0x3dff1a0a	0.124561384
214	0x3d96c436	0.07361643
215	0x3dfa1a9d	0.12212107
216	0xbde3a5a5	-0.111155786
217	0x3cfbc680	0.0307343
218	0xbddd88b7	-0.10817092
219	0xbe461155	-0.19342549
220	0x3dfb0015	0.12255875
221	0x3e32b3d1	0.17451407
222	0xbe02af1c	-0.12762111
223	0xbe200cd5	-0.15629895
224	0xbe0e3c39	-0.1389016
225	0x3d4abfe0	0.049499393
226	0xbdde1c96	-0.10845296
227	0xbe3cf8c7	-0.18454276
228	0x3e06f47a	0.13179198
229	0xbe1ea5fb	-0.15493004
230	0xbe9ae655	-0.30253854
231	0x3d9f1f2e	0.07769619
232	0x3eff1e7b	0.49827942
233	0x3dded06d	0.10879598
234	0xbd53a88b	-0.051674407
235	0xbe245e79	-0.16051663
236	0xbe53c389	-0.2068006
237	0xbdc5d703	-0.09660151
238	0xbe58ca81	-0.21170999
239	0x3e19aeba	0.15008059
240	0xbde2d54a	-0.11075838
241	0x3d6275a0	0.055287957
242	0xbe2cf771	-0.16891266
243	0x3e7af696	0.24508128
244	0x3d86a492	0.06574358
245	0x3e5ba86e	0.2145097
246	0xbe3ad0c4	-0.182437
247	0x3e21f1f8	0.1581496
248	0x3e43e26e	0.19129345
249	0xbda2e898	-0.0795452
250	0xbe2d3785	-0.1691571
251	0xbdd92bfe	-0.10604094
252	0xbe5b139e	-0.21394202
253	0x3c8f35ef	0.017481772
254	0x3d8f30a0	0.06991696
255	0x3d64e1b4	0.05587931

fc.bias f4 [3]
0	0xbddeda5f	-0.10881495
1	0x3e1914d2	0.14949349
2	0x3bd54d3b	0.0065094507
